Network/target_net.ckpt (torch_old, 485811 bytes, 54 tensors)

conv1.weight f4 [16, 1, 5, 5]
00000000: 0397 2d3e 77d2 233e 37fc a8bd 194e 1b3e
00000010: b375 f7bd 8812 313d d4c9 49bd 42c3 c93d
00000020: 589e e73c 6ca5 51bd e6ce 8cbd c0e5 a4bc
00000030: c9a3 403e 1a61 91bd b60d d03d 1773 003e
00000040: 0014 6e3c e017 27bd 003d 42be 80a7 153d
00000050: 27a8 41be 0429 05be 900b 8a3c 9e03 f23d
00000060: 40a6 62bd 586c 6ebd 00f3 e83a 603c b03b
00000070: a024 bebb a258 22be d03a 17bc 5efc dc3d
00000080: ac58 163d 38d4 30bd 4f97 043e 00c0 edbd
00000090: a086 93bb 347c 96bd 2e42 f03d 1003 913c
000000a0: f671 8c3d 9890 17bd 809f 1a3c 4722 3b3e
000000b0: 2899 4bbd 7145 243e c0d2 ec3b d210 fc3d
000000c0: d01e 993c 6895 c6bc bed0 b33d d3cc 24be
000000d0: cc44 03bd eab3 16be 18fe 4abe 00b4 b03c
000000e0: 7837 02be 479e cebd 8ad7 a5bd fa9f 13be
000000f0: 935c 263e 7264 1cbe 40dd a6bb 9a36 9cbd
00000100: e676 b83d 33af 0d3e 2b30 063e e061 7cbd
00000110: f4d9 5a3d f0ef 8c3c f677 02be d89c 30bd
00000120: 8ae0 e03d babb b5bd cc5b 0fbd 5653 983d
00000130: 3df3 1a3e bcde 8fbd d02e 03bc 0ef8 16be
00000140: 86c1 f23d 28b9 a43c 00b8 3539 908b d33c
00000150: 28ff ffbc c4bb 673d c3a6 0e3e 5200 ff3d
00000160: 75de 2dbe 2606 22be 329b f93d 5850 f33c
00000170: efe8 283e e990 003e 15c4 36be d858 5dbd
00000180: ffb2 36be 8038 afbc 308e dbbc 65bf 2d3e
00000190: 6e7e 20be ff30 033e 50b5 acbc 40aa 1bbd
000001a0: b09f c13c 00ed f93a e41f 04be b055 c13c
000001b0: 411f 293e 4250 2cbe bd90 1f3e 4000 a6bc
000001c0: 20cc 35be f816 163d 86ac 29be d997 3e3e
000001d0: 83f4 203e 4f93 0b3e ce23 bb3d 7279 09be
000001e0: e94c 383e 8d87 2c3e 6d56 a3bd f9a2 003e
000001f0: b0af 2abc 932c 1fbe 1e1d e13d 830f d7bd
00000200: 2dbc 133e c8c5 3ebe 9899 c0bc 5a2b db3d
00000210: 9e18 fe3d b258 893d c0e3 a0bc 29b3 423e
00000220: 50d4 50bc e1f3 4a3e d8b9 dcbc ed0c 183e
00000230: e0e4 d5bd 7341 43be babd eabd 9309 0a3e
00000240: 004e 383b c219 ed3d 729b 863d 57fe b0bd
00000250: 0006 bb3c ac67 2ebd a9a5 1b3e bbfb 233e
00000260: 46a6 8a3d c3bf 243e 3442 533d 801a 0cbb
00000270: 6ae3 d03d a0ff 063d 9b40 0b3e 8ce5 90bd
00000280: 30c1 47be 51a4 003e 504d f9bd 4251 b83d
00000290: 8d7d 003e a889 9ebc 6c1b 47bd b80f 3ebd
000002a0: 182d 82bc c238 c63d 404e 14be 6bf4 12be
000002b0: d87b 9fbc 83e6 9ebd 4c9e 90bd 608f f33b
000002c0: 92a2 1fbe 6d59 a8bd d9a1 123e 13b7 3f3e
000002d0: 2260 953d fa52 cbbd 1842 853c 6b8a 273e
000002e0: e010 67bd 3a0c c83d 60a0 013d 6557 32be
000002f0: 0cb2 443d 385b 37bd 4d8b 3e3e 40e9 0a3d
00000300: 30a6 fdbc 3228 e73d 1826 243d 0937 293e
00000310: 2067 0ebc e4f4 5b3d 7a4a adbd 7640 843d
00000320: 0c52 77bd daaf bf3d 60ff 55bc 4769 d8bd
00000330: 1a11 b63d 16ce 92bd 007e e93b 6e52 983d
00000340: 587f cabc 17a6 46be c3e4 0a3e 308f 873c
00000350: 2761 c6bd 40d5 d0bc 9732 afbd a5a7 213e
00000360: d000 4bbc 744e 72bd 5842 6fbd c7f9 373e
00000370: ffd2 193e f0a7 e7bd 2d89 2cbe 80b9 f8bd
00000380: 8397 4b3e cb6d 283e ccf9 65bd 43c1 b6bd
00000390: adea cfbd 4014 c0bc 40d3 63bd c0a4 04bb
000003a0: 1e41 fb3d cc54 4e3d 96c2 f23d dae2 d5bd
000003b0: dded 093e faf7 f0bd d0eb a53c c2e1 19be
000003c0: 9af7 12be 581f 1abe 3d09 a0bd f8a5 5bbd
000003d0: 0843 7fbd b1df 133e 8955 243e f225 a83d
000003e0: 0245 3cbe 3e4f 1ebe a77f b7bd 379b 2a3e
000003f0: 3224 e23d 76b9 28be 12ad c03d ea11 b83d
0.16952138 0.15998255 -0.08251231 0.1516651 -0.12082996 0.043230563 -0.049264744 0.098516956
0.028273746 -0.05118315 -0.068754 -0.020129085 0.18812479 -0.07098599 0.10158865 0.12543903
0.014531136 -0.040794253 -0.18968582 0.036536694 -0.18911801 -0.13003927 0.016851217 0.11817096
-0.05533433 -0.058208793 0.0017772615 0.005378291 -0.005802706 -0.15854123 -0.009230331 0.10790323
0.036705658 -0.043171138 0.12948345 -0.11608887 -0.0045021325 -0.073479086 0.11731373 0.017701656
0.06857674 -0.03700313 0.009437442 0.18274795 -0.049706608 0.16042115 0.007227272 0.12307896
0.01869145 -0.024241164 0.08780049 -0.16093759 -0.03204803 -0.1471707 -0.19823492 0.021570206
-0.12716472 -0.10088783 -0.080977514 -0.14416495 0.16246252 -0.15272692 -0.005092293 -0.07627602
0.09007053 0.13836364 0.13104312 -0.06161678 0.053430513 0.017204255 -0.12741074 -0.043118328
0.109803274 -0.088736966 -0.034999654 0.0743777 0.1513185 -0.07024905 -0.008006766 -0.14743063
0.11853318 0.02010782 0.0001733005 0.025823385 -0.031249598 0.05657555 0.13930802 0.12451233
-0.16979392 -0.15822658 0.12187804 0.029701397 0.16495107 0.12555279 -0.17848237 -0.054039806
-0.17841719 -0.021389246 -0.026801199 0.16967542 -0.15673229 0.1281166 -0.02108255 -0.03800416
0.023635715 0.0019067824 -0.1290279 0.02360043 0.16515829 -0.16827491 0.15582557 -0.020263791
-0.17753649 0.036643 -0.16569719 0.18612613 0.15718274 0.13630413 0.091376886 -0.13425234
0.17998089 0.16848584 -0.07975469 0.12562169 -0.010417864 -0.15544347 0.10991882 -0.105010055
0.14427252 -0.18630135 -0.02351074 0.10701628 0.12407039 0.067063704 -0.01963985 0.19013657
-0.012745932 0.19819595 -0.026944086 0.14848681 -0.10444045 -0.19067936 -0.11461969 0.13480215
0.0028122663 0.115771785 0.065726176 -0.086422615 0.02283001 -0.042579338 0.15199913 0.16013996
0.067699954 0.16088776 0.051576808 -0.00213781 0.10199626 0.032958627 0.13598864 -0.070750326
-0.19507289 0.12562682 -0.12172949 0.08999874 0.12547894 -0.019352749 -0.048610136 -0.04640171
-0.015890643 0.096787944 -0.14482975 -0.1435105 -0.019468233 -0.0775881 -0.07061443 0.007432863
-0.1558936 -0.082201816 0.14319552 0.18722181 0.072937265 -0.09927936 0.016266868 0.16361396
-0.056412578 0.09767957 0.031647086 -0.17416151 0.04802136 -0.044764727 0.18607827 0.03391385
-0.030963033 0.112869635 0.04007539 0.165249 -0.008691579 0.053700343 -0.08461471 0.064576074
-0.06038098 0.09359713 -0.013061374 -0.10566955 0.088899806 -0.07168214 0.007125616 0.07437597
-0.024718925 -0.19399296 0.13563828 0.01654777 -0.09686499 -0.02549231 -0.08554571 0.15786608
-0.01239033 -0.05915685 -0.05841288 0.17966376 0.15021895 -0.113113284 -0.16849203 -0.12144756
0.19882016 0.16448133 -0.056146428 -0.089235805 -0.10152183 -0.023447156 -0.055621386 -0.00202398
0.122682795 0.050373837 0.118535206 -0.10443659 0.13469644 -0.11766048 0.020254046 -0.15027526
-0.14352265 -0.15051019 -0.07814262 -0.053625077 -0.062319785 0.144408 0.16048254 0.082103625
-0.183857 -0.15459916 -0.089598946 0.16660772 0.1104206 -0.16476998 0.094080105 0.08987792

conv1.bias f4 [16]
00000000: e207 26be a795 cfbd 4aae dbbd 0002 f8bb
00000010: ee7b 1dbe 5513 2e3e 1890 40bd 2e7c 883d
00000020: c0a7 bb3b ab1e 363e cc5b 99bd c844 1bbe
00000030: 3068 fa3c 2bc3 33be 88d3 18bd a72e 483e
-0.16213945 -0.10135966 -0.107266024 -0.007568598 -0.15379307 0.16999562 -0.04701242 0.066643104
0.0057267845 0.17785136 -0.07488212 -0.15162957 0.030567259 -0.1755492 -0.037311107 0.19549046

bn1.weight f4 [16]
00000000: c89a 9c3d b705 633f 55eb 423f 03e3 593f
00000010: c67d 163f 7534 3d3f c427 113f f0d9 453e
00000020: 5468 bc3e 241b 403e d029 3f3d 047f 343e
00000030: 1cbd 3e3f d841 8f3e 5685 8f3e fe8c 0d3f
0.0764671 0.88680595 0.7614034 0.8511202 0.58785665 0.7390817 0.567013 0.19321418
0.36798346 0.18760353 0.046670735 0.17626578 0.7450731 0.27979922 0.28031415 0.5529326

bn1.bias f4 [16]
00000000: 0000 0000 0000 0000 0000 0000 0000 0000
00000010: 0000 0000 0000 0000 0000 0000 0000 0000
00000020: 0000 0000 0000 0000 0000 0000 0000 0000
00000030: 0000 0000 0000 0000 0000 0000 0000 0000
0.0 0.0 0.0 0.0 0.0 0.0 0.0 0.0
0.0 0.0 0.0 0.0 0.0 0.0 0.0 0.0

bn1.running_mean f4 [16]
00000000: 8d12 26be af9c cfbd 8ea6 dbbd 7de6 f5bb
00000010: b484 1dbe a61d 2e3e 45db 3fbd 0857 883d
00000020: 42f2 b93b b42d 363e 6d12 99bd ba5d 1bbe
00000030: ce6e fa3c df28 34be 4fba 18bd 482f 483e
-0.16218014 -0.10137307 -0.10725127 -0.007504283 -0.15382653 0.17003497 -0.04683997 0.06657225
0.0056746313 0.17790872 -0.074742176 -0.15172473 0.030570414 -0.17593716 -0.037287053 0.19549286

bn1.running_var f4 [16]
00000000: 2ba2 a83a 2b81 143a 4f70 823a 6109 943a
00000010: c4a8 a03a 56df 913a 4745 673a 4b7b 483a
00000020: 16c3 583a 2a93 b63a 546e b13a 63d4 7a3a
00000030: e2e1 9f3a 6625 a73a 24a3 9e3a 644e ef3a
0.0012865713 0.00056649995 0.0009951683 0.0011294299 0.0012257327 0.0011129181 0.0008822274 0.00076477666
0.0008268816 0.0013929356 0.0013536909 0.0009568391 0.0012198056 0.0012752234 0.0012103063 0.0018257615

conv2.weight f4 [32, 16, 5, 5]
00000000: 1af1 883c 86c3 d63c 6249 c53c 23a3 b4bc
00000010: e019 7fbc b3ee a1bc dd18 2dbd 7088 a2bc
00000020: d05d b03b 529d fb3c 656f 243d c000 743a
00000030: 154d 183d 7b05 1dbd da6a ab3c 4053 75bc
00000040: c2ae cb3c 1ad7 c63c 6ba9 4a3d b7d2 ebbc
00000050: 4018 e83a 23d0 ecbc 4f94 323d 365b bb3c
00000060: 8295 46bd 2e59 e23c 5629 93bc 19fc 153d
00000070: a314 eebc e075 1bbb ab82 0b3d 570d 303d
00000080: 571d 0f3d 8003 10bb a1b0 203d 067b f13c
00000090: a08f 1d3c a4a5 0bbd 02b6 13bd 807f 79ba
000000a0: 98ea 3fbd fd66 d7bc 8ced 723c e06c 9abc
000000b0: 5e6a 993c a8af e03b 20a1 143b 9b10 3cbd
000000c0: 7251 c43c 25cb 2cbd 6b74 46bd ae54 913c
000000d0: d31a 213d 488c 73bc 6307 1b3d 4805 32bc
000000e0: 1cf6 7f3c 6b86 4b3d d820 6bbc 30ea c9bc
000000f0: 9852 a23b 936c 1fbd 7496 48bc d211 dc3c
00000100: 180c 3abd 60e0 b6ba a0ca 113c 70e5 b0bc
00000110: 1828 ff3b bda9 01bd 0272 f23c dd45 453d
00000120: a746 283d cce1 55bc 4a43 f73c f274 8a3c
00000130: a014 10bd 217e 443d ce09 2bbd 9829 ea3b
00000140: 48e8 10bc 3875 1cbc 5258 d33c fd1e d6bc
00000150: 00aa 5cb9 0090 8e3b 910e 093d d654 e53c
00000160: 51e9 053d 4049 babb e001 61bb b550 13bd
00000170: b7ce 43bd f582 1b3d 4460 6e3c 28ee 0abd
00000180: 3070 18bd b406 5c3c 1ae8 9fbc 201f 59bc
00000190: 6ab2 983c 3d2f 41bd 0c94 123c 02c7 b43c
000001a0: 30af 9f3b 50db 243b ee31 953c c691 84bc
000001b0: 0742 ecbc 20ef 24bb faa7 f73c 1ad7 963c
000001c0: d79e 4abd 4c81 70bc 5b70 323d 7493 033c
000001d0: a003 a5bc 928e 8f3c 60db 57bc ca0c c53c
000001e0: 0877 21bd c830 30bc 3a34 9fbc ccae 323c
000001f0: 46f1 fc3c 4898 40bc 5020 933b 7106 463d
00000200: 3135 2c3d 9848 123c 93b1 3f3d 52c0 fb3c
00000210: 016d 373d cd56 d5bc 0063 06bc 40a1 70ba
00000220: 0020 c1b8 d328 b2bc 3dba 3f3d 41ee 113d
00000230: 346b 18bc 8042 76bb 59b5 3f3d e9c9 133d
00000240: d07c 30bb e273 09bd 9dec 483d c0c2 8dbc
00000250: 426f d93c 9858 f5bb 2f19 2dbd c0a4 deba
00000260: 639e 10bd a8fb 18bd 9233 c63c c195 2a3d
00000270: 4300 063d a210 f93c c028 de3b 2aa5 e93c
00000280: 822d a43c 5e0d 8e3c 40e2 893b c03d c6ba
00000290: 0e3c de3c f9ac 363d 576e c9bc 7ad1 e73c
000002a0: 9e94 1bbd 6861 303c df2c 103d 94dd 0c3c
000002b0: c97b 463d d360 3abd 5813 0fbc 19dd 353d
000002c0: 9206 993c 30df 073b 235e 083d 71aa 0b3d
000002d0: 1d4d 3f3d 7ae5 ff3c 2774 063d 809c 6dbc
000002e0: c0b0 59ba 60f3 d3bc c789 9fbc 7150 0d3d
000002f0: 9477 42bc 2aa9 bf3c ac06 2e3c aa2e e03c
00000300: 72a4 d23c 8833 44bd 102b 3abd ee1c 9f3c
00000310: 8e4d bb3c da1f 81bc 4186 353d 04be 6e3c
00000320: 4156 4b3d 0696 8abc b0f7 393b d33b c5bc
00000330: f420 99bc c824 463c 2800 c33b 00b6 ef3b
00000340: c0ea febc 9f56 2b3d 9af0 833c a4ea 793c
00000350: ffcc 263d 60fc ad3a d10e 163d 50d8 e33b
00000360: ba3f dbbc 20a0 0ebb 7079 b33b 121e 08bd
00000370: 8c49 03bd 43f7 b6bc 6c5c 06bc 1a2d edbc
00000380: 44c5 763c c26b 22bd 401d c03a 00df be3a
00000390: 0022 50bb 5935 223d 134d bcbc 2883 06bc
000003a0: 948e 073c e708 dcbc 1df1 41bd 9721 a1bc
000003b0: 39f7 313d 08f6 67bc 394c 143d d917 1e3d
000003c0: 48e2 08bd 00de 04bc fedd 843c 1403 8cbc
000003d0: b14a 2f3d 31ff 263d a424 6a3c 18fb 04bc
000003e0: 0229 843c 06c5 843c 562b 923c 6f26 1f3d
000003f0: 7586 1ebd 00b5 3fb9 673b cdbc eb0a 1dbd
0.016716529 0.02621628 0.024082843 -0.022050446 -0.015570134 -0.019767141 -0.04226004 -0.01984045
0.005382277 0.030714665 0.040145297 0.0009307973 0.037182886 -0.038335305 0.020924974 -0.014973462
0.024863604 0.02427249 0.049477976 -0.028787 0.0017707422 -0.028907841 0.04359847 0.022870641
-0.048482426 0.027630415 -0.017964046 0.036617372 -0.029062575 -0.0023721382 0.03406016 0.042981472
0.03494009 -0.0021974742 0.039230946 0.029477607 0.009616762 -0.034093514 -0.036062248 -0.0009517595
-0.046854585 -0.026294226 0.014827143 -0.018850744 0.018727478 0.0068568774 0.0022679046 -0.045914274
0.023964617 -0.04218592 -0.04845087 0.017740574 0.039332222 -0.014864989 0.03784884 -0.010865517
0.015622642 0.049688738 -0.014351092 -0.024647802 0.0049536936 -0.038921904 -0.012242902 0.026863966
-0.04542169 -0.0013952367 0.008898407 -0.02159378 0.007786762 -0.031656016 0.029595379 0.04816233
0.041083004 -0.013054322 0.030183453 0.016901467 -0.03517592 0.04797185 -0.041757397 0.0071460716
-0.008844443 -0.0095494315 0.02579895 -0.026137823 -0.00021044165 0.004350662 0.033461157 0.027994554
0.03269321 -0.0056850016 -0.0034333393 -0.03596564 -0.04780456 0.037966687 0.014549319 -0.03391853
-0.037216365 0.0134293325 -0.019519854 -0.01325205 0.018639762 -0.04716419 0.00894643 0.02206755
0.004873179 0.0025155134 0.018212285 -0.016182791 -0.028840078 -0.0025166944 0.030231465 0.018413115
-0.049467888 -0.014679264 0.04356418 0.008030761 -0.02014333 0.017524038 -0.013174862 0.02405395
-0.039420158 -0.010753818 -0.019434083 0.010905933 0.030876767 -0.011755057 0.004489936 0.048345987
0.042042915 0.0089284405 0.046800207 0.030731354 0.04478169 -0.026042366 -0.008202314 -0.00091793016
-9.2089176e-05 -0.021747982 0.04680847 0.035627607 -0.009302903 -0.0037576258 0.046803806 0.03608123
-0.0026929863 -0.03355778 0.049053777 -0.017304778 0.02654231 -0.007487368 -0.042260345 -0.0016986355
-0.0353073 -0.037349373 0.024194513 0.041646723 0.032715093 0.030403439 0.00677976 0.02852114
0.020041231 0.017340358 0.0042078793 -0.0015124604 0.027128246 0.044598553 -0.024588747 0.028298128
-0.03798353 0.010765411 0.035199042 0.00859775 0.048457894 -0.045502495 -0.008732639 0.04440031
0.01867989 0.0020732395 0.0332929 0.034098092 0.0467044 0.031237353 0.032825615 -0.014502645
-0.0008304231 -0.025872886 -0.019474877 0.034500543 -0.01186933 0.023396093 0.010621708 0.027366001
0.02571318 -0.047900707 -0.045451224 0.019422974 0.02286413 -0.015762258 0.044317488 0.01457167
0.049642805 -0.01691724 0.0028376393 -0.024076378 -0.018692471 0.01209373 0.0059509464 0.0073153973
-0.031117797 0.041830655 0.016105939 0.015253697 0.040722843 0.0013274066 0.036635224 0.0069532767
-0.026763786 -0.0021762922 0.005477123 -0.033231802 -0.03205256 -0.0223347 -0.008200746 -0.02895217
0.01506168 -0.039653547 0.0014657155 0.0014562309 -0.0031758547 0.039601658 -0.02298597 -0.008209981
0.008273739 -0.026859714 -0.047349084 -0.019669337 0.04344866 -0.0141577795 0.036205504 0.03859696
-0.033418924 -0.00810957 0.016219135 -0.017091312 0.04279584 0.040770713 0.014290962 -0.008116506
0.016132835 0.01620723 0.01784293 0.038855013 -0.038702447 -0.00018282607 -0.02505274 -0.03834049

conv2.bias f4 [32]
00000000: 73aa ffbc 1b89 26bd 8a7c 1fbd edac a6bc
00000010: d0b7 c6bb 60b5 2abb 8bcd 183d bad1 c1bc
00000020: 67a6 d9bc dbf4 3f3d 8ad7 cbbc 466d 0bbd
00000030: 6b43 42bd a0ee 4fbc e56f 333d 1898 09bc
00000040: 08a7 47bc fad5 f0bc da75 d2bc 0274 a63c
00000050: 6c2f 733c 502c 99bc b720 f7bc 4a54 da3c
00000060: 87dd ebbc 3917 1b3d 2a21 d6bc 5e98 b23c
00000070: ca5d f73c 68e6 a4bb 7a90 2dbd 7272 b43c
-0.031209206 -0.040658098 -0.03893713 -0.02034613 -0.0060643926 -0.002604805 0.037305396 -0.023659576
-0.026568605 0.04686437 -0.02488305 -0.03403976 -0.047427576 -0.01269117 0.043807883 -0.008398078
-0.012185819 -0.029398907 -0.025690962 0.020318989 0.014842849 -0.018697888 -0.030166967 0.02665152
-0.028792156 0.037863944 -0.02613886 0.02180117 0.03019609 -0.0050323494 -0.04237411 0.022027228

bn2.weight f4 [32]
00000000: 600e 4d3e dca2 463f 77e8 173f b075 843e
00000010: 3ef9 4c3f cb29 2e3f 5e2e 2c3f 2254 d93e
00000020: 25eb 153f fc6e 373e ccbc 003f a0ef 333f
00000030: e053 9f3e 9747 633f 68c1 a73d 56c4 333f
00000040: ac4d 8f3e 7c81 183e 80b1 fb3b 5578 5d3f
00000050: 25a7 283f 3f34 153f 76e0 483f f04d 4e3e
00000060: 061f c63e 53d2 4d3f d0e3 d23e 9243 3d3f
00000070: 2e5a 2d3f c055 313e 42c8 d43e 5fbc 313f
0.20025015 0.77592254 0.5933909 0.25871038 0.80067813 0.6803252 0.6725825 0.42447
0.5856193 0.17913431 0.5028808 0.70287514 0.3111868 0.8878111 0.08191186 0.7022146
0.27988946 0.14893144 0.0076810718 0.8651174 0.6588004 0.58282846 0.784675 0.20146918
0.38695544 0.80399054 0.41189432 0.7393123 0.6771573 0.17317867 0.41559035 0.69428056

bn2.bias f4 [32]
00000000: 0000 0000 0000 0000 0000 0000 0000 0000
00000010: 0000 0000 0000 0000 0000 0000 0000 0000
00000020: 0000 0000 0000 0000 0000 0000 0000 0000
00000030: 0000 0000 0000 0000 0000 0000 0000 0000
00000040: 0000 0000 0000 0000 0000 0000 0000 0000
00000050: 0000 0000 0000 0000 0000 0000 0000 0000
00000060: 0000 0000 0000 0000 0000 0000 0000 0000
00000070: 0000 0000 0000 0000 0000 0000 0000 0000
0.0 0.0 0.0 0.0 0.0 0.0 0.0 0.0
0.0 0.0 0.0 0.0 0.0 0.0 0.0 0.0
0.0 0.0 0.0 0.0 0.0 0.0 0.0 0.0
0.0 0.0 0.0 0.0 0.0 0.0 0.0 0.0

bn2.running_mean f4 [32]
00000000: 16dc 083e 01e4 febd 0019 54bd f5d0 52bc
00000010: ebe4 52be 42c3 b0bd c9b0 503e 7215 e1b9
00000020: f849 da3d 9b38 f63c 90a1 f53d 8c9b 2b3e
00000030: 915f 93bd 8247 003c a236 033d 5724 8ebd
00000040: a030 24be 06fd 13be e78e 73be 1268 7abd
00000050: 35bd 193e 322e c6bd 0342 78bc 6354 0a3d
00000060: 1578 683d 3c45 123e 4608 b73b f380 7ebd
00000070: b5d6 0bbc d8b5 0d3d 1330 d33d e40c 3ebd
0.13365206 -0.12445832 -0.051781654 -0.012867202 -0.20595138 -0.086309925 0.20379938 -0.00042931322
0.1065864 0.030056288 0.11993706 0.16758555 -0.07195962 0.007829549 0.032034524 -0.06940525
-0.16034174 -0.1445199 -0.23784982 -0.061134405 0.15013583 -0.0967678 -0.015152457 0.033771884
0.056755144 0.14284223 0.005585703 -0.062134694 -0.008535077 0.034597248 0.10311904 -0.046399012

bn2.running_var f4 [32]
00000000: c9be 403d 8eed 2e3d da4a 253d 649a 0a3d
00000010: ffcc 9d3d c64d 173d dede 8d3d abe3 233d
00000020: 3ba1 3c3d 67b2 043d 7cfb 443d 3f1e ae3d
00000030: 0e08 243d fe43 fd3c 78c2 273d 235f d23c
00000040: 8cca 7c3d b33c 253d 9a24 6c3d 6610 103d
00000050: 8022 4a3d 47ca 2c3d 1c70 153d a40b 613d
00000060: 2598 353d 64d0 253d c2bc 143d 630e 3a3d
00000070: 69b7 023d 5a55 e33c 4079 6b3d 785c 1c3d
0.047056947 0.04270702 0.040354587 0.033838645 0.077051155 0.036939405 0.06927274 0.040012043
0.0460522 0.0323967 0.048091397 0.08501863 0.040046744 0.03091621 0.040956944 0.02568013
0.0617166 0.04034109 0.057652093 0.03517189 0.049349308 0.042185094 0.03648387 0.054942742
0.04433455 0.04048194 0.036312826 0.045423876 0.031913195 0.02775066 0.05748868 0.038174123

conv3.weight f4 [32, 32, 5, 5]
00000000: 3a64 64bc 78be 08bd b002 bf3b d127 09bd
00000010: 80b0 d7b9 c755 063d ed6c 093d 8ad1 43bc
00000020: 5483 8e3c e3d9 023d 6632 9a3c 3275 dabc
00000030: 096d f8bc 0004 a5b8 d450 73bc 8c57 b0bc
00000040: 705c 363b 2461 75bc d339 013d 9073 683c
00000050: 8855 de3b b4d9 bcbc 9caa 593c 90c8 6dbc
00000060: 530a 96bc 5648 9f3c 5a42 b93c f23f f03c
00000070: 0c11 84bc bdba 00bd f9ef 0d3d 4082 733c
00000080: 66d7 0abd dc63 653c 8aa5 b1bc 002a f3ba
00000090: cc2b 293c e8db 32bc 0376 eabc 29e1 03bd
000000a0: 8c71 533c e09b e0bb 1890 5e3c c681 e73c
000000b0: e0a6 d43a ca7d cbbc 72bb e4bc 5c64 1c3c
000000c0: d2a4 fe3c 1871 ab3c 1c13 d8bc 103c 383c
000000d0: 0a6e 29bc 6a73 27bc 40a6 a93b c288 b63c
000000e0: aad2 a2bc 743b bcbb 0e56 d13c ca61 04bc
000000f0: ae84 f43c 74e7 bcbb 2ccb 99bb 9e79 22bc
00000100: f691 7bbc b6b8 983c 002c 0bb8 1cc3 0b3c
00000110: 6e30 22bc 885e fd3b ccf8 263c c43b 1c3c
00000120: aec2 d3bc ceac bbbc b63c f1bc fc02 763c
00000130: 9670 5cbc b036 08bc 9a6c aa3c 2e30 d73c
00000140: dc8d 163c f826 1e3c f2d0 5cbc a095 efbb
00000150: 4054 253c d706 0b3d c013 6d3b a037 06bd
00000160: d86a 4d3c 8889 c63c 70b2 7e3c 9424 abbb
00000170: 8a3c a9bc 5e66 cbbc 15c1 f1bc a6b6 d53c
00000180: c26b d6bc 2471 703c b023 bfbb 5a96 fb3c
00000190: 3cc1 aebb f0af 22bb 8687 83bc 07a8 0dbd
000001a0: a09f 693c a0d2 af3c b787 b5bc f06b 1a3b
000001b0: 8a6d d8bc 6075 ad3b 6070 30bc 0080 6b3a
000001c0: ad74 96bc 186a 43bc ec0b a13c dc76 91bc
000001d0: e031 a93a aaba 24bc fcf8 f9bb 8042 853c
000001e0: 6ce4 b5bc 2e9c 92bc a037 02bb 009c 3339
000001f0: db13 08bd de96 31bc 411a 053d 645c 3f3c
00000200: 24ae 02bd 8050 4cbb 7d80 033d e401 51bc
00000210: 40b7 a0bc bafe 47bc ae48 03bc 7a20 f23c
00000220: ec2b 0fbd a6f7 c23c 00f8 b338 0205 19bc
00000230: 5859 ebbc bbe9 0b3d 6e8c e53c b47c d2bc
00000240: 7c09 f8bb 0027 1fba ac2a 04bd 5e6a b73c
00000250: 5550 0c3d 58f0 fbbc 74dd 423c d554 053d
00000260: e8d0 ad3c 42b1 71bc 646a 1dbc 1045 b93b
00000270: 1051 5f3c 5837 f93b 2e12 f33c 499c e6bc
00000280: e41b 843c b202 3cbc 8e39 a7bc 44c3 073c
00000290: b461 5c3c 168b e53c d2fe bb3c c09a 4cbb
000002a0: 407d 2d3b d0aa 3e3c 3090 923b dd84 083d
000002b0: 90dd 163b 3c08 b4bb 2894 db3b 4475 e9bb
000002c0: 8eda e9bc 5a54 0fbd a475 f8bb 263c 08bd
000002d0: c6fa 84bc de17 aabc 1ee2 68bc 36fb d23c
000002e0: 028d 0bbd a65a f23c fcc0 743c c042 3f3b
000002f0: 2aca ab3c 34d6 853c 91fa 053d 680a cdbb
00000300: 5b70 003d e046 64bc 3b78 c7bc e5b0 f6bc
00000310: b486 27bc 54ee b73c 8097 823b 4019 f3bb
00000320: 9860 f5bc 40bc 49ba 2857 ab3c f88a b3bc
00000330: 001f b33c 68fa a1bb 74f3 e5bc 245d b03c
00000340: d04b 8cbc c0cb 553b a0a6 0dbb b218 01bd
00000350: d650 08bd e30b 073d d5c7 09bd c4bc 333c
00000360: 14ba 14bc a0b7 db3b 1c80 d33c 86fd b83c
00000370: 6e37 0fbd 5833 09bd 18ac 913b 6d77 9bbc
00000380: 1887 6b3c 50fa 0abc a28a a9bc 541f 313c
00000390: a0fd 19bb 4099 453c daa2 bcbc de20 52bc
000003a0: a0d6 e03b eec4 ba3c f84e 453c 68d8 783c
000003b0: eecf 9ebc 4eaa afbc 1e80 a33c 9c28 453c
000003c0: 0c29 0f3c 6e79 debc 3a35 06bc b895 023c
000003d0: 44fd 6e3c 4833 5abc 6a96 d6bc a4e8 b43c
000003e0: 9284 b93c 924a d9bc 31ae eabc 4062 a7bc
000003f0: 4863 d8bb 09ce f7bc 0416 e5bc a45a fdbc
-0.0139399115 -0.03338477 0.005829178 -0.033485238 -0.00041139498 0.032796647 0.033551145 -0.0119518135
0.017396607 0.031946074 0.01882286 -0.026667211 -0.03032543 -7.868558e-05 -0.014850814 -0.02152612
0.0027826093 -0.014976773 0.031549286 0.0141877085 0.0067850985 -0.023053028 0.013285305 -0.01451315
-0.01831547 0.019443672 0.022614647 0.029327367 -0.01612141 -0.031428088 0.034652684 0.014862597
-0.033896826 0.014000859 -0.02168538 -0.0018551946 0.010325383 -0.010916688 -0.028620725 -0.03219715
0.01290549 -0.0068545192 0.013584159 0.028260123 0.0016224049 -0.024840254 -0.027921412 0.009545412
0.031084452 0.02092795 -0.0263763 0.011244789 -0.010341177 -0.010220388 0.0051772892 0.022282008
-0.019875843 -0.005744392 0.02555373 -0.008079955 0.029848423 -0.005764896 -0.0046934094 -0.009916691
-0.015354624 0.018642765 -3.318116e-05 0.008530404 -0.009899242 0.0077322163 0.010191154 0.009535734
-0.025849666 -0.022909548 -0.029447895 0.01501536 -0.013454577 -0.00831382 0.020803738 0.026268091
0.009189095 0.009652846 -0.013477551 -0.007311538 0.010090888 0.03394207 0.0036175102 -0.032767892
0.012537681 0.024235502 0.0155454725 -0.0052228663 -0.02065875 -0.024829086 -0.029511014 0.02608807
-0.02617443 0.014675412 -0.0058331117 0.030711342 -0.005333094 -0.0024824105 -0.016055834 -0.03458407
0.014259249 0.021462739 -0.02215944 0.002356287 -0.02641942 0.005293533 -0.01076898 0.0008983612
-0.018366182 -0.01192715 0.019659005 -0.017756872 0.0012908541 -0.01005427 -0.007628558 0.016267061
-0.022203647 -0.017896738 -0.001986958 0.00017128885 -0.03322206 -0.010839192 0.03249574 0.0116797425
-0.031904355 -0.0031175911 0.032104958 -0.012756798 -0.01961863 -0.012206728 -0.008012934 0.029556502
-0.034953997 0.023799729 8.581579e-05 -0.009339573 -0.028729126 0.03415845 0.028021064 -0.025694229
-0.00756949 -0.000607118 -0.032267258 0.022389587 0.034256298 -0.030754253 0.011893619 0.032551605
0.021217778 -0.014751734 -0.009607885 0.005653985 0.013630167 0.0076054744 0.029671755 -0.028150694
0.01612658 -0.011475252 -0.020413186 0.008286301 0.013451029 0.028020423 0.022948656 -0.0031220168
0.002647236 0.011637405 0.004472755 0.033329833 0.0023020245 -0.0054941457 0.006701011 -0.007124575
-0.028546598 -0.034992553 -0.007582383 -0.033260487 -0.01623286 -0.020763334 -0.014214067 0.025754552
-0.034070022 0.02958424 0.014938589 0.0029184073 0.020970423 0.016337492 0.032709662 -0.006257344
0.03135715 -0.013932914 -0.024349323 -0.030113647 -0.010224987 0.02245251 0.0039853454 -0.0074187815
-0.029953286 -0.0007695593 0.020915583 -0.021916851 0.021865368 -0.004943181 -0.028070189 0.021528788
-0.017125994 0.0032622665 -0.0021614209 -0.031517692 -0.033280216 0.03297032 -0.03363784 0.010970298
-0.009077568 0.0067052394 0.025817923 0.022581827 -0.03496497 -0.03349623 0.004445564 -0.018977845
0.014375471 -0.008482531 -0.020695988 0.010810692 -0.002349712 0.012060463 -0.023026872 -0.012825219
0.006861523 0.022798982 0.012042753 0.015188314 -0.019386258 -0.021443512 0.019958552 0.012033608
0.008737814 -0.027157512 -0.008191401 0.007970266 0.01458675 -0.01331789 -0.02619477 0.022083588
0.022646222 -0.026524816 -0.028647514 -0.020432591 -0.006603632 -0.030249612 -0.0279646 -0.03092701

conv3.bias f4 [32]
00000000: 809d 2b3c 31c8 003d 448b fcbb f63f 75bc
00000010: baea 8abc ce4b f13c 965f 6cbc d89b 873b
00000020: c5e9 02bd 0020 2c3b 00b8 5ab9 308e 753c
00000030: cfbe ddbc f548 8cbc 0a45 f53c fd5b 9fbc
00000040: 5c85 6d3c 42c8 40bc 712f 87bc b0a4 793c
00000050: fa96 50bc 8abc 78bc 1c6d 5dbc f4ad 823c
00000060: e98c d7bc 054c 9cbc c08c de3a aedc 9b3c
00000070: 00b0 95b9 9dee 03bd f28e f2bc 48af 12bc
0.010474563 0.031440917 -0.0077070314 -0.014968863 -0.01695763 0.029455092 -0.014427086 0.004138451
-0.03196122 0.002626419 -0.00020858645 0.014987513 -0.027068524 -0.017124632 0.029940147 -0.019453043
0.014497127 -0.011766495 -0.016502114 0.0152370185 -0.012731308 -0.01518167 -0.013514783 0.015952088
-0.026312308 -0.019079218 0.0016979203 0.019026127 -0.00028550625 -0.03220998 -0.029609177 -0.008952923

bn3.weight f4 [32]
00000000: 1a75 493f 2830 c13d 7cec 733f a014 b23e
00000010: 9d40 7c3f d749 423f f097 443e 62d7 4d3f
00000020: 3972 363f df9e 663f 17bc 393f f0d4 003d
00000030: fa6e 593f 9671 353f 84ac 1b3e 9c32 493f
00000040: 46ef ca3e b629 863e 00bc d33b 8e9d 783f
00000050: 3718 483f f009 f53d fd1e 743f 34c2 bb3e
00000060: f13c 593f c911 423f a0cf 3a3f f03c 663e
00000070: 3fd6 433f ec80 513e 9561 653f b294 9a3e
0.7869431 0.09433013 0.9528272 0.3478136 0.9853609 0.7589392 0.19198585 0.80406773
0.7126804 0.9008617 0.7255263 0.031453073 0.8493496 0.70876443 0.15202528 0.7859285
0.39635676 0.26203698 0.0064616203 0.9711541 0.7816195 0.11964786 0.95359784 0.36671603
0.84858614 0.7580839 0.7297306 0.22484183 0.7649879 0.20459336 0.89602023 0.3019157

bn3.bias f4 [32]
00000000: 0000 0000 0000 0000 0000 0000 0000 0000
00000010: 0000 0000 0000 0000 0000 0000 0000 0000
00000020: 0000 0000 0000 0000 0000 0000 0000 0000
00000030: 0000 0000 0000 0000 0000 0000 0000 0000
00000040: 0000 0000 0000 0000 0000 0000 0000 0000
00000050: 0000 0000 0000 0000 0000 0000 0000 0000
00000060: 0000 0000 0000 0000 0000 0000 0000 0000
00000070: 0000 0000 0000 0000 0000 0000 0000 0000
0.0 0.0 0.0 0.0 0.0 0.0 0.0 0.0
0.0 0.0 0.0 0.0 0.0 0.0 0.0 0.0
0.0 0.0 0.0 0.0 0.0 0.0 0.0 0.0
0.0 0.0 0.0 0.0 0.0 0.0 0.0 0.0

bn3.running_mean f4 [32]
00000000: d6a2 97bd 8093 233e 40a0 1f3e a477 083e
00000010: b69b 0f3e 952e 4b3e 2fdb 3a3b 096a 13bd
00000020: 5530 743e 04ea f3bd eb66 1c3e a021 d63d
00000030: 1d65 e4be 0c3e b43c 2cdd bbbd 6224 ba3a
00000040: 62e2 343d 3bcc 1f3c 487a 1cbe fd32 cf3e
00000050: ccc2 0d3d 16c9 0f3e ba51 3fbe 0754 b5be
00000060: 3356 013e e321 4abe 044d 1a3e 8577 273e
00000070: c81d 8fbd e927 32be 50fc 98bc 338f 6e3e
-0.07404105 0.15974236 0.15588474 0.1332689 0.14024243 0.19841988 0.0028511991 -0.035989795
0.23846562 -0.11909869 0.15273635 0.10455632 -0.44608393 0.022002243 -0.091730446 0.0014201517
0.044161208 0.009753282 -0.15281022 0.40468588 0.0346096 0.14041552 -0.1868352 -0.3541567
0.12630539 -0.1973949 0.15068442 0.16354187 -0.06988102 -0.17398037 -0.018675 0.23296814

bn3.running_var f4 [32]
00000000: ab68 2d3d f7d9 023d 6987 423d 5b9c d43c
00000010: be85 033d 7d1e 2c3d 91b5 0e3d 83fb 153d
00000020: 9b51 a53d f693 0f3d b6d8 2a3d 4d27 5c3d
00000030: dedb 403d e965 2d3d 0a92 153d 31d1 113d
00000040: 8f3f 503d add5 113d 1e68 223d c9cb 303d
00000050: ec04 193d c280 d63c 3711 233d d8fe 443d
00000060: c251 093d 96da 413d c682 293d 66ad 083d
00000070: 65d4 073d 86a2 313d a278 323d 6119 273d
0.042336147 0.03194615 0.04749242 0.025953462 0.03210997 0.042021263 0.034841124 0.036616813
0.08072206 0.035053216 0.041710578 0.053748418 0.04708468 0.042333517 0.036516227 0.03559989
0.050841864 0.035604168 0.039650075 0.043163095 0.03735821 0.026184443 0.03981134 0.0480946
0.033525236 0.0473276 0.04138448 0.03336849 0.03316154 0.043367885 0.043572076 0.040795688

head.weight f4 [3, 192]
00000000: e4ce 633d a8e1 3d3c 50ff fd3c 3030 c33c
00000010: 4a78 b5bc b6cb 313d 0067 17bc 3080 b73b
00000020: e02e 0d3b fa3e 883d b43b 4dbc d832 7ebc
00000030: a804 cf3c 0040 62bc bf44 6cbd c824 d9bc
00000040: 52bd 833d c4bf 8f3d b22f c4bc ec03 7bbd
00000050: 2a02 e6bc bc1d 18bd b4cf 91bd 93fd 30bd
00000060: b8ea 52bd 7403 2d3d 68fd 40bc e085 39bc
00000070: 3838 db3c 20ec d5bb 5043 a43c 80f9 bf3a
00000080: 90e9 4f3c a80d 723c d8b5 a8bc fcee 443d
00000090: 648c 063d c269 0e3d e8ad 7c3d 4618 093d
000000a0: 5829 693d bcb2 213d 86d0 a6bc cc60 6c3d
000000b0: 8509 10bd dc16 32bd 10ec c53b 5a28 0e3d
000000c0: acac c33c 6e91 1e3d 88a3 e83c 5d3e 90bd
000000d0: b041 75bd 7ecd c4bc 2584 74bd a44f cdbc
000000e0: a840 7e3d 48cb 513c e26d 8bbc fe87 0e3d
000000f0: 2c58 18bd 043a 163d d0b8 83bd 0aa8 10bd
00000100: e800 293c e808 80bd c45a 4f3d 3650 74bd
00000110: 48ad 60bd f880 3f3d 849d ecbc b45c 44bc
00000120: a0e3 9f3c 1b13 17bd d0af e8bb 0c7c 8a3c
00000130: 24bd 4fbd 2844 5f3d 1e9a 70bd 0839 06bc
00000140: 34fe a43c 5a66 403d 9045 bbbc e402 e9bc
00000150: 7ca9 48bd 70b1 30bd 389a 7d3d b0eb 19bc
00000160: 6890 e1bc 8283 2ebd 382d d63c 40a0 a7ba
00000170: 58e9 043c 94c3 933d 209a 18bc ea7c 89bd
00000180: 4322 90bd 24a3 7fbd c69f dbbc 46dd 66bd
00000190: bbc7 8ebd fc1c e83c 66fc 863d b62f bbbc
000001a0: 140e 90bd 0203 203d ce73 493d c014 e33c
000001b0: 7245 493d e802 473c ae6c 4ebd c477 2dbc
000001c0: dfa6 49bd 40f0 b2bc 58de 23bc 20ff 68bb
000001d0: b880 ce3c a7d8 01bd 30c8 393c fc8a 9e3c
000001e0: ac95 5ebd f3b3 2bbd 0814 653c 148d 23bd
000001f0: 62dd 2e3d 6ee9 8dbd a489 15bd 584c 613d
00000200: ec61 d5bc 7458 4c3d e443 863c 143d ae3c
00000210: 4832 3c3c 9079 533d d793 1cbd 80cb eeba
00000220: 8066 42bb ec80 bc3c d0f4 493c 98e6 073d
00000230: 60ac 16bd e377 07bd bad0 adbc d0cc c93b
00000240: e855 403c 2099 c4bb 847a ac3c fa14 1e3d
00000250: 50e7 28bd 54fc f83c f03d 66bc 8caf 6ebd
00000260: e839 ed3c 40d9 bd3c b0f8 df3c e05c 763c
00000270: b61e b9bc 8087 813a cc5b 49bd e1fb 8abd
00000280: d0bf 703c 8018 dfbb 8e38 f7bc 86ed 2cbd
00000290: 787e 103c 0000 b73b 802d 7d3a 90ac a53b
000002a0: 6893 aa3c a00d 83bc 860f a3bc ed9e 8dbd
000002b0: e0eb 753c c03d 90bd 769e b1bc 644f 58bc
000002c0: 08e3 723d 00d2 92b9 c242 b3bc 2893 173c
000002d0: 5043 cf3c e84e c03c f871 8f3d 5ad0 58bd
000002e0: 484b 82bd 7467 de3c eb0a 26bd 6087 b0bb
000002f0: 4c9d fc3c 60a6 393d 048b 8ebd 2004 273b
00000300: 801d 3b3d 6666 92bd 6e25 19bd 44f6 853c
00000310: b8fc 16bc a830 ab3c b999 1abd 80a4 e6ba
00000320: 2445 733d ea86 8abd f812 cfbc 1663 89bd
00000330: fc5f 8e3d 0c78 7ebd a87d d5bc f09a b63b
00000340: d005 1e3d 6030 1b3d de52 c8bc 2b5f 8cbd
00000350: 8809 db3c 828a 24bd ec2c 5b3d dc6e 2ebc
00000360: b6b9 803d d287 94bc 52a5 cfbc c803 88bc
00000370: 0a06 873d 882d 82bd 005e 0939 6458 4fbd
00000380: da03 08bd a408 8d3d 8630 4a3d 004b 043a
00000390: 1e3b 8e3d 10e6 9fbb d07c 55bc c018 67bd
000003a0: 140b 4cbc 00fe 6b39 70aa 03bd bfcc 8abd
000003b0: fe52 07bd e8fd 513d 1e1a a9bc 92e7 923d
000003c0: f3c6 89bd e100 8fbd e36a 76bd 56ec 80bc
000003d0: 5e83 0d3d 4097 f6ba 3880 563d 48d2 41bc
000003e0: 78d4 003c 0cb1 903d 7883 433d 30a9 cc3c
000003f0: 8819 35bd 20f6 153c b0b7 6c3d f8f2 6b3d
0.05561723 0.011589445 0.031005532 0.023826689 -0.022152085 0.043407165 -0.009240866 0.005599998
0.0021542832 0.06652637 -0.012526441 -0.015515052 0.025270775 -0.013809204 -0.05768275 -0.026506796
0.06432594 0.07018998 -0.023948524 -0.061283037 -0.028077204 -0.037137732 -0.07119694 -0.043210577
-0.051493376 0.04223962 -0.011779167 -0.011323422 0.026760206 -0.0065283924 0.020051628 0.00146465
0.012689963 0.014773764 -0.020594522 0.048079476 0.03284873 0.034768827 0.061689287 0.033470415
0.056924194 0.039477095 -0.020363104 0.0577095 -0.03516533 -0.04347883 0.0060401037 0.03470645
0.023886047 0.03871291 0.02839829 -0.07043145 -0.059877098 -0.024023768 -0.059696335 -0.02506239
0.06207338 0.012804814 -0.01702017 0.03479766 -0.037193462 0.03667642 -0.064317346 -0.035316505
0.0103151575 -0.06251699 0.05062367 -0.059646808 -0.054852754 0.046753854 -0.028883703 -0.011984993
0.01951772 -0.036883455 -0.0071010366 0.016904853 -0.050717488 0.05450836 -0.058740728 -0.008192308
0.020140745 0.04697261 -0.022860318 -0.028443761 -0.048989758 -0.043137968 0.061914653 -0.009394571
-0.027534679 -0.042605884 0.026144609 -0.0012788847 0.008112274 0.07215038 -0.00931409 -0.067132786
-0.07037785 -0.062411442 -0.026809584 -0.056363367 -0.06971689 0.028334133 0.0659111 -0.022849899
-0.07033935 0.03906537 0.049182706 0.027719855 0.049138494 0.012146689 -0.050396614 -0.010587636
-0.049231406 -0.021843076 -0.010001741 -0.0035552457 0.025207862 -0.031700756 0.011339232 0.019353382
-0.054341957 -0.04191966 0.013981827 -0.039929464 0.042691596 -0.06929289 -0.036508217 0.055004448
-0.02604767 0.049889043 0.016389795 0.021269359 0.011486597 0.051629603 -0.03822693 -0.0018218607
-0.0029663146 0.023010693 0.012326434 0.033178896 -0.036785483 -0.033073317 -0.021217693 0.0061584488
0.011739232 -0.0059996992 0.021054514 0.038594224 -0.04123622 0.030393757 -0.014052853 -0.058272883
0.028958276 0.023174882 0.027340263 0.015036792 -0.022597652 0.0009882301 -0.04915981 -0.06786323
0.014694169 -0.0068083405 -0.030178335 -0.042218708 0.008819215 0.005584717 0.0009657964 0.0050559714
0.020822242 -0.015997708 -0.019904863 -0.06915078 0.01500985 -0.07043028 -0.021682005 -0.013202522
0.059298545 -0.00028003752 -0.021882419 0.009251393 0.025300652 0.023475125 0.0700416 -0.052933075
-0.06362015 0.02714894 -0.040537756 -0.0053872317 0.030836724 0.045324683 -0.06960109 0.0025484636
0.04568243 -0.07148437 -0.03738921 0.01635278 -0.009215526 0.020897225 -0.037744258 -0.0017596632
0.05939211 -0.06764014 -0.0252776 -0.06708352 0.06951901 -0.062126204 -0.026060894 0.005572669
0.038579762 0.03788793 -0.024453577 -0.06854089 0.026737943 -0.040171154 0.053509638 -0.010646548
0.062854216 -0.01813117 -0.025347386 -0.016603366 0.06592949 -0.06356341 0.00013100356 -0.050621405
-0.033206798 0.06886414 0.04936268 0.0005046576 0.069448695 -0.0048797205 -0.013030246 -0.056420088
-0.012453813 0.00022505969 -0.032144964 -0.067773335 -0.033038132 0.051267534 -0.020642336 0.07173075
-0.067274 -0.069825895 -0.06016053 -0.015737694 0.03454911 -0.0018813387 0.052368373 -0.01182992
0.0078631565 0.07065019 0.0477328 0.024983019 -0.0442138 0.009152919 0.057792366 0.05760476

head.bias f4 [3]
00000000: 24a2 58bc ecbc 7fbc ac21 063d
-0.013222251 -0.015609007 0.032746956

conv1.weight f4 [16, 1, 5, 5]
00000000: bb84 263e ed2f 223e 3290 c6bd b519 bb3e
00000010: 6e55 0f3d 52aa 97bd 8d69 5e3e 484b 023f
00000020: 86c5 54bd b6c6 303e b42f 92bb a0f2 a5be
00000030: e3a4 063c da4b 243b 2a29 263d 6d36 66be
00000040: 27dd 88bd a23b 86bd baab 93be 9c13 003f
00000050: 00b5 4bbe 4047 aebe 88a1 45be fa1b 76bd
00000060: 91d9 1bbe f7e4 c4be b64e 56bd f91d 263e
00000070: d117 253d a100 253e 7c27 5dbe 2630 6b3e
00000080: 40b8 243c 6708 00be d4d6 01be f5cb 38be
00000090: de7c 25be 6957 81be 71e1 3fbe 0dfd 383d
000000a0: e986 0ebe 3c5a a6be 7398 5ebe f618 d53d
000000b0: ae38 3abd 0664 3dbe 6dc7 953e 694f e13e
000000c0: 2c06 91bd 1368 3abe 885b 0f3e 6188 9dbe
000000d0: 940a 81be 2cc2 82be d0cc 1bbf cb48 503e
000000e0: 8d77 29bd c32e bd3e b333 ff3c 96e7 29be
000000f0: 756b fb3d d130 9b3c c60f 103e 6b04 da3d
00000100: 0dbc 8b3e 66e0 db3d 2605 e83d 5f62 30bd
00000110: bef6 053f 8d5b 963e d36c c63d a4ac 1bbe
00000120: 2874 15be c55a e7be 8f07 5dbe be01 9f3e
00000130: ec75 1e3d ec21 973c 477a 89be 449e 22bf
00000140: 19c0 453e b9f4 0c3e ca2a 173e 5a3e 58be
00000150: 3fd4 a0be 782e 3f3c 32d6 c53e b4a1 953e
00000160: 4fa1 0cbe 6a88 e8bd 623d c83e f96f 733b
00000170: c4ff 9bbd 3811 a6bd 6350 3b3c 9468 cabd
00000180: 2e70 81be aafc 5dbe 02e3 62be e842 ea3c
00000190: 3fd7 2cbd e858 db3d 2e2c dfbc 871d 013e
000001a0: a642 4dbe 5070 6d3d b121 b5bd 572e 053d
000001b0: 9eb5 813d f285 64be ad1e e53d 268c fe3b
000001c0: cff3 d9bd 3bcf 05bd e4b8 a2be c9f7 033f
000001d0: 99f9 683e d83f a13d a126 473d 2e80 16be
000001e0: 4018 e23e ffbe 7e3e b638 6a3e fdc3 753e
000001f0: ccd9 36bd b584 163d 7c73 4b3b 2cd6 abbe
00000200: a2e6 f93d fb8d 093d 3d4e 893e ee13 103e
00000210: d83f f93e 7c89 8b3d 7cbf 54be 0823 0f3e
00000220: de38 3abc b9de 983e 379a 3cbe 3515 863e
00000230: 8b46 543d 3080 05bf dc3a bebe 4059 6ebd
00000240: 58a2 903e 4e61 753e 046b ef3b a9a8 61be
00000250: 8eda b4bd a470 7f3c 7db6 663d 445e 8c3c
00000260: f7a2 453e 39d4 8b3e 54db d33e ec34 393d
00000270: 1fc4 48be bd83 32be a1a1 f23d 05e2 65be
00000280: 0d01 5bbe 4c79 afbd 0774 9cbe a0c1 9ebe
00000290: d081 3d3c 1b2e 04be ed75 84be c79d 90be
000002a0: fdbc 90be 27f8 f53c 92a5 2c3e b36c 4dbe
000002b0: e3ec 49bd 3230 7abe 411c 78be bdf0 bebe
000002c0: c47a ba3e 3451 c83e cd9c e53e d3b7 553f
000002d0: b62b 883e 6844 1c3d 34ed 893c a484 893e
000002e0: d056 843e 5e30 c53d 2cbc 0c3a dffe 8dbd
000002f0: 0fa7 d23d f322 df3d 9085 933d 0ff3 39be
00000300: 8911 a73e 3346 163e 2555 a63b 8969 0e3b
00000310: 90ef 833d 915c d33d 6be6 763b a84d 43bd
00000320: 2172 f6bd a7fe 893e 265a 8fbe be6c 9cbe
00000330: c4f2 0c3e cf50 c5bc dc08 9cbd fa23 efbb
00000340: fc7f a23d 4c81 5ebe 9ebe ef3d 123a ca3e
00000350: 554f 27be 02f8 b6be 77c8 bbbe 53f1 d93e
00000360: 3de7 3e3d 0762 efbe 742a c73c 66af 013e
00000370: 3ea0 c73e 2234 65bd 2fa9 c5be 71fe 73be
00000380: a43b 543e 5f45 e7bc 8c84 323d 203a 7a3e
00000390: 943b 7cbd 0300 01bf 5fb6 ecbd 76bb a2bd
000003a0: 039d aebe 52ac a23b 2994 8e3e 2f89 a73c
000003b0: dea1 423e b6c2 05be 0b32 ef3d bb8f f2bc
000003c0: 8157 e7bd 955d 583d 56b1 c63e c8ce 983e
000003d0: c243 0ebf 52ce ae3e 1639 cd3e a081 e73d
000003e0: 4787 f4be c859 ed3c d15b fc3d dc19 153e
000003f0: 0bfb 0f3e a52e d1bd 2411 383e 43d3 273e
0.1626157 0.15838595 -0.09695472 0.3654305 0.03499358 -0.07405533 0.21719952 0.5089612
-0.051946186 0.17263302 -0.004461253 -0.3241167 0.008218023 0.0025069625 0.0405666 -0.224817
-0.066828065 -0.06554343 -0.28841954 0.5002992 -0.19893265 -0.34038734 -0.192999 -0.060085274
-0.15219714 -0.38455936 -0.05232116 0.16222371 0.040305916 0.16113521 -0.21597093 0.22967586
0.010053694 -0.12503205 -0.12679607 -0.18046553 -0.16160914 -0.25262 -0.18738343 0.045163203
-0.13918652 -0.32490718 -0.21737842 0.104051515 -0.04546421 -0.18495187 0.29253712 0.44005898
-0.07081255 -0.18203764 0.1399976 -0.3076811 -0.25203383 -0.25538766 -0.60859394 0.20340268
-0.041373778 0.3694974 0.031152582 -0.1659225 0.12276355 0.018944176 0.14068517 0.10645374
0.2729191 0.1073616 0.11329107 -0.043062564 0.52329624 0.29366723 0.09688725 -0.15202576
-0.14595091 -0.4518644 -0.21584915 0.31056017 0.038686678 0.018448792 -0.26851103 -0.63522744
0.1931156 0.1376523 0.14762416 -0.21117535 -0.3141193 0.011668794 0.3863998 0.29224932
-0.1373341 -0.11354144 0.3910933 0.0037145598 -0.07617143 -0.08108753 0.01143274 -0.09883228
-0.252809 -0.21678415 -0.22156909 0.028596357 -0.042197462 0.10710317 -0.027242746 0.1260892
-0.20044956 0.057968438 -0.08844317 0.032514896 0.06333469 -0.22316721 0.111874916 0.007768172
-0.10642206 -0.032668334 -0.31781685 0.51549965 0.22751464 0.07873505 0.048620824 -0.14697334
0.44159126 0.24877547 0.22873196 0.24000545 -0.0446413 0.036747653 0.0031044176 -0.33561838
0.12202193 0.03358267 0.26817504 0.14070103 0.4868152 0.068133324 -0.2077617 0.13978207
-0.011366097 0.29857424 -0.18418203 0.26188055 0.051825088 -0.52148724 -0.3715428 -0.058190584
0.28248858 0.239629 0.0073064584 -0.22036995 -0.088307485 0.01559082 0.056326378 0.017134793
0.19300447 0.2731035 0.41378272 0.045216486 -0.19606064 -0.17433067 0.118472345 -0.22449501
-0.2138712 -0.085680574 -0.30557272 -0.310071 0.011566594 -0.12908213 -0.2587122 -0.28245375
-0.28269187 0.030025555 0.16860035 -0.20060997 -0.04929818 -0.24432448 -0.24229528 -0.37293044
0.36421788 0.39124453 0.44846192 0.8348362 0.2659585 0.038151175 0.01683674 0.2685901
0.25847483 0.09628366 0.0005368616 -0.069333784 0.1028577 0.10895338 0.072032094 -0.18159126
0.32630566 0.14675216 0.005076068 0.0021730384 0.06442177 0.1032039 0.003767396 -0.04768148
-0.12033487 0.26952097 -0.27998465 -0.30551714 0.13764483 -0.024086384 -0.07618877 -0.00729799
0.07934567 -0.2172901 0.11706279 0.3949743 -0.16338857 -0.3573609 -0.3667638 0.42566928
0.046607245 -0.46754476 0.024312235 0.12664565 0.38989443 -0.05595792 -0.3860564 -0.2382753
0.20725876 -0.02823132 0.043583438 0.24436235 -0.061580256 -0.5039064 -0.11558222 -0.079459116
-0.34104165 0.00496439 0.27847412 0.020451156 0.1900706 -0.13062558 0.11679467 -0.029609552
-0.11295987 0.05282362 0.38807172 0.29845262 -0.5557214 0.34141785 0.40082616 0.11304021
-0.47759458 0.028973475 0.123222 0.14560646 0.14060609 -0.10213975 0.17975289 0.16389184

conv1.bias f4 [16]
00000000: aa18 1e3e 5854 663d 13ed c5be 9721 1abe
00000010: 79de fabd e9db 263e 65af 7a3b 70b2 133d
00000020: 9920 4bbf aa1e 7f3e 83d2 bc3c 4fb6 103e
00000030: 3483 c6bd f75a 393f ce66 8bbe 09c9 bb3d
0.15439096 0.05623278 -0.38657436 -0.15051876 -0.122494645 0.16294827 0.0038251516 0.036058843
-0.79346615 0.24914041 0.023049599 0.14132045 -0.09692994 0.72404426 -0.2722687 0.09169204

bn1.weight f4 [16]
00000000: 4ecf e53c a244 143f 495c 4e3f f04d 753f
00000010: f2f6 4a3e 347d 5b3e c032 f73e d2e2 123f
00000020: e7d6 053f a824 203e 3847 32bb a106 083f
00000030: 3728 2a3f cd6b b03d 0f09 a93e 6a52 333f
0.028052952 0.57917225 0.80609566 0.9582205 0.19820765 0.2143448 0.48280907 0.5737735
0.5228104 0.15638983 -0.0027203094 0.53135115 0.66467613 0.08614311 0.33014724 0.7004763

bn1.bias f4 [16]
00000000: 6ca1 91be 6aca 91be 8b2c 28be a5c1 14bd
00000010: dc70 cabe 06c8 9c3e bf31 163e 0cd0 c4bc
00000020: 483d 373f dde3 c03d f2de 0abe a0fe ebbd
00000030: 320d ad3e b9f3 463e 7fb4 d13e aaaa 7ebe
-0.28443468 -0.28474742 -0.16423242 -0.036317486 -0.3953923 0.30621356 0.14667414 -0.024024986
0.7157788 0.094184615 -0.1356161 -0.11523175 0.3379913 0.1942891 0.4095802 -0.2486979

bn1.running_mean f4 [16]
00000000: 678e 1e3e 4d3e 833d 6207 c0be 6850 20be
00000010: a7e6 08be 7c8e 1f3e 6627 a53b b459 f33c
00000020: 9224 4abf cd11 833e f3d2 bc3c fe03 103e
00000030: a33d c8bd 5a7f 353f ce00 8abe 1f38 883d
0.1548401 0.06408367 -0.37505633 -0.15655673 -0.13369237 0.15581697 0.005040097 0.02970586
-0.7896205 0.25599518 0.023049807 0.14064023 -0.09777381 0.7089745 -0.2695374 0.06651329

bn1.running_var f4 [16]
00000000: 1f87 da38 e7c2 a838 ae3e 1939 8696 d638
00000010: d826 8938 defc e038 8d28 d138 9850 1d39
00000020: d105 ed38 8aef 1c39 1f12 d238 536d 1339
00000030: 2345 e338 a9ae a638 56c9 da38 7657 1739
0.00010420218 8.047168e-05 0.00014614567 0.00010232352 6.539904e-05 0.000107282525 9.97345e-05 0.0001500271
0.00011302124 0.00014966555 0.00010016956 0.00014059739 0.00010837081 7.94803e-05 0.00010432552 0.00014433064

conv2.weight f4 [32, 16, 5, 5]
00000000: 80ce ee3d 0202 97bd c2db 9abd d684 f3bd
00000010: b280 ac3d 4cef a33d cc99 11be 4a5e f5bd
00000020: 0387 c1bd 2a11 8abd d9fb 74bd 2470 ce3d
00000030: d020 80bd 7da0 0dbe aad3 a1bd e65c ebbd
00000040: 663d fc3d 20c1 9abd 2554 4bbd 3ad1 03be
00000050: 400e c9bd dbea 03be 51d2 66bd 1ed9 9dbd
00000060: eefb 17be 06f9 93bd 62e4 f0bd 86cc 81bd
00000070: 4428 04be 85a3 d1bd 3a09 87bd eb88 69bd
00000080: 6827 0a3e 7144 c83d 03e6 78bd 9e6a 90bd
00000090: 7214 b9bd 4e4e 09be 3e52 0bbe 8dbb cebd
000000a0: 005f 16be 6850 01be 366b aebd 1466 f3bd
000000b0: fc24 f33d 88bd bebd a269 d13d b17f 5d3d
000000c0: 9cdb fd3d 9398 11be 9101 18be fc73 a8bd
000000d0: e571 78bd 423a ebbd fd73 7ebd 67e7 e2bd
000000e0: 3ab6 ec3d a245 193e 9c1b eabd 3146 ffbd
000000f0: 9ca0 c2bd 7f40 0ebe 30dd e5bd 0ec5 95bd
00000100: 1de8 14be 8ea3 cfbd a186 babd b903 f9bd
00000110: f0d7 bcbd 01cf 06be 4c2c 90bd c948 54bd
00000120: e34a 71bd 6c85 e7bd fce9 8ebd f462 ef3d
00000130: be6a 0abe 4911 55bd 28c2 6b3d 7c28 bebd
00000140: 41d4 debd e454 e0bd a6f0 97bd 6b29 01be
00000150: 1e39 cdbd 79e2 c3bd 9443 88bd b271 93bd
00000160: a2d0 89bd 846e d8bd bdb8 c53d b82b 0bbe
00000170: dd58 17be 6702 7ebd 5ef3 aebd 4220 09be
00000180: c47f 0cbe a849 b1bd 5eb7 a43d 35a4 b13d
00000190: 66ef f23d ef27 583d 5416 df3d 3297 9fbd
000001a0: 79cb c2bd b4a2 c7bd 904a a7bd aa90 ab3d
000001b0: c7e9 03be 16f2 d1bd 0cdf 8ebd 4c15 a7bd
000001c0: 190d 19be 04af ae3d 2721 67bd 2053 bcbd
000001d0: de68 a33d dc91 f03d 98bf e7bd 46ec fd3d
000001e0: 3eb1 0ebe a3cf e2bd d097 f4bd 9a04 e33d
000001f0: 0003 063e 57dd e4bd b762 c3bd c971 53bd
00000200: c359 6dbd 0381 babd 3d50 163e aed8 8dbd
00000210: 0528 62bd 0310 01be d295 ddbd 74ac cebd
00000220: faf8 ccbd 923b a03d 4dd7 59bd 4cd4 83bd
00000230: 9ed2 dfbd eb7a d4bd 27e0 59bd cc4b 0b3e
00000240: 7c43 c73d 088b 08be c3a1 50bd 0131 f0bd
00000250: 4a2e 96bd 921b dcbd a7a9 11be ba43 d0bd
00000260: 8c89 0abe e14a 803d f454 fe3d d9f5 6ebd
00000270: 0ec5 89bd 5481 8ebd 6c6f da3d d452 92bd
00000280: 2ca2 a3bd dc4c f03d 7929 c4bd 36e2 cfbd
00000290: 5c23 023e 07e4 62bd 0c18 ffbd ecd4 92bd
000002a0: 9645 0dbe 98be b6bd 829b 84bd fc22 bbbd
000002b0: 6d6a 51bd a3fb 14be 03ab debd d9d5 133e
000002c0: 26f1 f23d 0c74 c8bd 748f 88bd d0ea 86bd
000002d0: db37 5abd 9ec3 8cbd 2686 89bd 5973 eabd
000002e0: 04ad ca3d d56a 973d 23a8 f4bd fc1d 86bd
000002f0: 426b b43d 9ed3 9cbd 1886 e23d 4499 94bd
00000300: 7e14 98bd 446a 17be 76e1 14be fec1 a4bd
00000310: 48ec 9dbd d0ff ecbd a5e7 63bd 829b ea3d
00000320: 370d 4ebd 726e efbd 3695 d23d 3716 febd
00000330: ae10 f3bd 4d03 b4bd 2695 c0bd 8dcd bdbd
00000340: da41 06be ad34 6ebd ccc9 abbd 6689 adbd
00000350: 47c5 72bd 907a cf3d 8ab2 81bd 11fc da3d
00000360: 25cc 01be dc38 d1bd 088a c1bd fc6a 08be
00000370: 0a0d 07be 3073 fabd 8e8b ddbd 4508 04be
00000380: 409b eb3d 10ea 0ebe 73be c9bd 74ae cf3d
00000390: 8746 d3bd 9b33 77bd 94d9 fbbd a08d ddbd
000003a0: ca3d bbbd 24d5 01be a6dc 16be a600 f5bd
000003b0: 5976 66bd dea1 af3d b68f 82bd f777 7bbd
000003c0: 1097 08be b561 ddbd aa76 abbd 4891 efbd
000003d0: c539 6abd c41d 103e 667a afbd 8050 ddbd
000003e0: 36af abbd 4496 abbd d8f7 a7bd 95da 79bd
000003f0: e9ec 0dbe 7290 ccbd d841 993d 4fe2 7a3d
0.116604805 -0.0737343 -0.07561447 -0.11890571 0.08422984 0.08004627 -0.14218825 -0.11980875
-0.094495796 -0.06741555 -0.059810493 0.10079983 -0.062562585 -0.13830753 -0.079017 -0.11492328
0.12316398 -0.07556367 -0.049640793 -0.12872782 -0.09817171 -0.12882559 -0.056352917 -0.077074274
-0.14842197 -0.07225232 -0.117623106 -0.06337838 -0.12905985 -0.10236267 -0.06593557 -0.05701534
0.13491595 0.09778679 -0.06076623 -0.070515856 -0.09037103 -0.13408777 -0.13605592 -0.10094366
-0.14684677 -0.12628329 -0.085165426 -0.11884704 0.118722886 -0.09313494 0.10225226 0.054076854
0.12395403 -0.14218359 -0.14844348 -0.08225247 -0.060655493 -0.11485721 -0.062122334 -0.11079293
0.115581945 0.14967969 -0.11431047 -0.1246456 -0.0950329 -0.13891791 -0.11223829 -0.07312976
-0.14541669 -0.101386175 -0.0910771 -0.12158913 -0.09220874 -0.13164903 -0.07039699 -0.051827226
-0.05890931 -0.11304745 -0.06978223 0.11688796 -0.13517281 -0.052018438 0.05755821 -0.092850655
-0.10880328 -0.109536916 -0.07418947 -0.12613456 -0.1002066 -0.095646806 -0.066535145 -0.0719942
-0.06729247 -0.10567954 0.09654377 -0.13590896 -0.14779992 -0.06201401 -0.08542512 -0.13391212
-0.13720614 -0.08656627 0.08042787 0.08673898 0.11862068 0.05277246 0.108929306 -0.0779251
-0.095114656 -0.0974783 -0.081685185 0.08377202 -0.12882148 -0.10251252 -0.069761366 -0.08158359
-0.14946403 0.08529475 -0.0564281 -0.09195542 0.07978986 0.117465705 -0.113158405 0.12398581
-0.139348 -0.1107476 -0.119430184 0.11084862 0.13087082 -0.1117503 -0.09540313 -0.051622186
-0.05794693 -0.09106638 0.14679046 -0.06926094 -0.055213947 -0.12603764 -0.108195916 -0.100914866
-0.10008426 0.07823862 -0.053183842 -0.06436977 -0.10928844 -0.10375007 -0.053192284 0.13603133
0.097296685 -0.13334286 -0.050935518 -0.11728097 -0.07333048 -0.10747446 -0.14224873 -0.10169168
-0.13529032 0.06264282 0.12418547 -0.058339927 -0.06727038 -0.06958261 0.10665783 -0.071447045
-0.07989916 0.1173341 -0.09578223 -0.10150568 0.12708801 -0.055393245 -0.124557585 -0.07169518
-0.13796076 -0.089230716 -0.06474973 -0.09137532 -0.051126886 -0.14549117 -0.10872462 0.14437045
0.11862402 -0.09787759 -0.066679865 -0.06587756 -0.053275924 -0.068732485 -0.0671504 -0.11447782
0.09896281 0.073934235 -0.11946132 -0.06548688 0.0880952 -0.0765755 0.110607326 -0.072557956
-0.074257836 -0.14786631 -0.14539132 -0.080448136 -0.07711083 -0.1157223 -0.055640835 0.11455442
-0.05030557 -0.11690988 0.10282366 -0.12406581 -0.11868416 -0.08789692 -0.09403448 -0.09267721
-0.13111058 -0.058155704 -0.08388099 -0.08473472 -0.05927017 0.10130799 -0.06332882 0.10692609
-0.12675531 -0.10215923 -0.094501555 -0.13322061 -0.13188568 -0.122290015 -0.108176336 -0.1289378
0.11504221 -0.13956475 -0.098507784 0.10140696 -0.103161864 -0.06035195 -0.12297359 -0.108180285
-0.09142645 -0.12678963 -0.14732608 -0.11963014 -0.05626521 0.085757956 -0.06375067 -0.061393704
-0.13338876 -0.10809652 -0.08372243 -0.11697632 -0.057184 0.14073855 -0.085682675 -0.1080637
-0.08383028 -0.0837827 -0.08201569 -0.06099947 -0.13859905 -0.09988488 0.07483262 0.06125098

conv2.bias f4 [32]
00000000: f67f 6ebd 6bea 8cbd f3be 8ebd 19ba d13a
00000010: 6fd5 843d ba7f 75bd 6299 6b3b 3360 5bbb
00000020: d62c a0bd c9dd 263c d3cf 7cbd bf22 9bbc
00000030: 3a7e 0fbd 79d0 713d ef28 cc3d 8c0a acbd
00000040: 85e6 af3c a8f2 a0bc 677c 34bd 735f 8cbc
00000050: 86ac 083d a60a b43c aa26 cfbd 30ec 75bc
00000060: 7066 cdbd 9726 383e 43b6 25bd 9524 043d
00000070: 7885 b03c 9d12 133d e590 3dbd 6c44 b8bd
-0.0582275 -0.06880649 -0.069700144 0.0016000896 0.06486022 -0.059936263 0.0035949578 -0.0033474087
-0.07821052 0.010184714 -0.061721634 -0.018937467 -0.03503249 0.059036706 0.09968745 -0.08400449
0.021472225 -0.019646958 -0.04406395 -0.017135357 0.033367656 0.021977734 -0.101147965 -0.015009925
-0.10029304 0.17983471 -0.04045702 0.03226145 0.021548018 0.035906423 -0.04628076 -0.089974254
