Network/target_net.ckpt (torch_old, 334470 bytes, 40 tensors)

conv1.weight f4 [16, 1, 5, 5]
0	0xbdca978a	-0.09892185
1	0xbdfbd82a	-0.122970894
2	0x3e265301	0.16242601
3	0x3d5bd1d4	0.053666905
4	0xbe42049b	-0.1894707
5	0x3d4b23a8	0.04959455
6	0x3cddf618	0.027094886
7	0xbd4cf4ec	-0.050038263
8	0x3da84352	0.08215965
9	0x3d802aee	0.06258188
10	0xbe2f8ac7	-0.17142783
11	0x3de43476	0.11142819
12	0xbe0b0ba0	-0.13578653
13	0xbe02a830	-0.12759471
14	0xbc5281a0	-0.012848288
15	0x3d033be0	0.032039523
16	0xbe42f553	-0.19038896
17	0x3e2ed003	0.17071538
18	0x3de7339a	0.11289139
19	0x3e088ab3	0.1333416
20	0xbd5e5df8	-0.054288834
21	0x3daae08a	0.08343609
22	0xbca1bb90	-0.019742757
23	0x3e37dfed	0.17956515
24	0xbd20c3d4	-0.039249256
25	0xbd66c3d4	-0.0563391
26	0x3de9e2b2	0.11420192
27	0x3dcf7eb6	0.1013159
28	0xbd31b480	-0.04338503
29	0xbd8d4384	-0.06897643
30	0xbe172983	-0.14761929
31	0xbd7d2918	-0.06180677
32	0xbdb45270	-0.08804786
33	0xbd81c430	-0.06336248
34	0x3e306293	0.17225103
35	0x3e18946f	0.14900373
36	0xbd97465a	-0.07386465
37	0xbc8fb9f0	-0.017544717
38	0x3e2d7ef7	0.16942964
39	0xbc848950	-0.016178757
40	0xbd922630	-0.0713619
41	0xbd973044	-0.07382253
42	0xbe38890f	-0.18021034
43	0x3de860be	0.11346577
44	0xbe498fb2	-0.19683722
45	0x3bedfcc0	0.007262796
46	0x3e0b632d	0.13612051
47	0x3e3820f9	0.17981328
48	0x3e3c2a6f	0.18375562
49	0xbdf0a33a	-0.11749883
50	0xbdc50be7	-0.09621411
51	0xbd854dda	-0.0650899
52	0xbdd0bc0a	-0.101921156
53	0xbe1cda68	-0.1531769
54	0xbe3a1343	-0.1817141
55	0x3d5fae8c	0.05460982
56	0xbd87d19a	-0.06631775
57	0x3e300db7	0.17192732
58	0xbc44ead0	-0.012018874
59	0xbe295c60	-0.16539145
60	0xbe48bfe8	-0.19604456
61	0x3e22d9c9	0.15903391
62	0x3dbc650a	0.09198959
63	0x3d100248	0.035158426
64	0xbd0f2bac	-0.034953758
65	0xbe4a2cb2	-0.19743612
66	0x3e417ea7	0.1889597
67	0x3c9a7a30	0.018857092
68	0xbcfc68e8	-0.030811742
69	0x3de0750e	0.109598264
70	0x3da8016e	0.08203398
71	0xbe128b62	-0.14310983
72	0x3dd5c9da	0.10438891
73	0xbb49dec0	-0.0030802935
74	0x3d8a7e56	0.06762378
75	0x3e1a8d69	0.15093006
76	0x3daebf86	0.08532624
77	0x3d2785ec	0.040899202
78	0x3e1f76bd	0.15572639
79	0xbd5a8b8c	-0.05335574
80	0xbe3b04f5	-0.1826361
81	0x3e19a421	0.15004016
82	0x3c5c0a80	0.013430238
83	0x3d151a88	0.036402255
84	0x3e11d3cd	0.14240952
85	0x3df32866	0.1187294
86	0x3dc4e532	0.09614028
87	0x3c7312d0	0.014836028
88	0xbd206758	-0.039161056
89	0x3e1cbd71	0.15306641
90	0xbd2dbd40	-0.04241681
91	0xbbdf34a0	-0.0068116933
92	0xbd6373f8	-0.05553052
93	0x3d9e086e	0.077164516
94	0x3d41b4c8	0.047291547
95	0xbd76cae0	-0.06025207
96	0xbe2ab332	-0.1666992
97	0xbe411e32	-0.18859175
98	0xbcfb13c0	-0.030649066
99	0x3e0e3723	0.1388822
100	0xbdf36317	-0.11884134
101	0x3dc7f102	0.097627655
102	0x3d3eccd8	0.046582073
103	0xbcb38300	-0.021913052
104	0x3dbdb7be	0.09263562
105	0x3d93d0c2	0.07217552
106	0x3cc1d1b0	0.023659557
107	0x3cba6c18	0.022756621
108	0x3d7c985c	0.06166874
109	0x39c4c000	0.00037527084
110	0x3b406d80	0.0029362142
111	0xbcba7580	-0.022761106
112	0x3e36f675	0.17867453
113	0xbdd62800	-0.10456848
114	0x3dace566	0.08442192
115	0x3e2c9c31	0.16856457
116	0x3e33d999	0.17563476
117	0xbd3b8cd8	-0.045788616
118	0xbe4c99d3	-0.19980554
119	0x3dc6e172	0.09710969
120	0xbdbfc2f0	-0.09363353
121	0xbdd33b7d	-0.10314081
122	0x3de827ba	0.11335702
123	0xbd9f9353	-0.07791772
124	0x3dd09766	0.10185127
125	0xbd898926	-0.06715612
126	0x3e15dc43	0.14634804
127	0xbe3bce58	-0.18340433
128	0xbdfb654d	-0.12275181
129	0x3e17d3b9	0.1482686
130	0xbe387330	-0.1801269
131	0x3e346bcf	0.1761925
132	0x3bea30c0	0.0071469247
133	0x3d3f4a60	0.04670179
134	0xbd6fff74	-0.05859323
135	0x3dea5de2	0.11443688
136	0xbe2ed1d7	-0.17072235
137	0xbe21f5ad	-0.15816374
138	0xbd812436	-0.06305735
139	0x3c138780	0.009004474
140	0xbdddf99a	-0.10838623
141	0xbb04aa80	-0.0020243227
142	0xbdf4ff2a	-0.11962731
143	0x3c62a7b0	0.013833925
144	0x3d5f3c24	0.054500714
145	0xbd611400	-0.054950714
146	0xbe37bef3	-0.17943935
147	0xbdc3f103	-0.09567454
148	0x3d8cef26	0.068815514
149	0x3e3f8e49	0.18706621
150	0x3e1a56db	0.15072195
151	0xbdbacaa0	-0.09120679
152	0x3e0be551	0.13661696
153	0xbe180985	-0.14847381
154	0xbe2eed07	-0.17082606
155	0xbdb79de0	-0.08965659
156	0xbda99ec7	-0.082822375
157	0xbd1bd768	-0.038047224
158	0x3c63dc80	0.013907552
159	0xbe3e3240	-0.18573856
160	0x3e2dfa71	0.16990067
161	0x3e0b70c1	0.13617231
162	0x3ce464a8	0.027880028
163	0x3d635ab4	0.055506423
164	0xbdc2809d	-0.09497187
165	0x3e4c73f3	0.19966106
166	0xbe03fe52	-0.12889984
167	0xbd993b9c	-0.07482073
168	0xbdea030d	-0.11426363
169	0xbe107006	-0.14105234
170	0xbe25f830	-0.16207957
171	0x3caae030	0.020858854
172	0xbd6a3bd8	-0.057185978
173	0xbe3287e8	-0.17434657
174	0x3e4adb05	0.19810112
175	0xbd40b44c	-0.047046944
176	0x3e061651	0.1309445
177	0xbb8aee60	-0.0042398423
178	0x3d52bebc	0.05145143
179	0xbe170778	-0.14748943
180	0x3c492c50	0.012278631
181	0x3d33dec8	0.043913633
182	0xbe02f29c	-0.1278786
183	0xbdab2e2d	-0.08358417
184	0x3e173391	0.14765765
185	0x3d37e568	0.044896513
186	0x3dade19e	0.08490299
187	0x3c084b20	0.008318692
188	0x3d951c7a	0.07280822
189	0x3dfd7622	0.12376048
190	0xbe250a16	-0.16117129
191	0xbe2c28ad	-0.16812392
192	0x3dc198b2	0.094529524
193	0xbd7243b8	-0.059146613
194	0xbe481597	-0.19539486
195	0xbe498028	-0.19677794
196	0xbd5d2800	-0.053993225
197	0xbdaa9b9a	-0.0833046
198	0xbe2b2343	-0.1671267
199	0x3c1837d0	0.0092906505
200	0xbd96cfaa	-0.073638275
201	0xbe06e026	-0.13171443
202	0xbccb54f0	-0.024820775
203	0xbdfbf350	-0.123022676
204	0xbe3b50bd	-0.18292518
205	0xbdd5a1b3	-0.10431232
206	0xbceb1900	-0.028698444
207	0x3ddb3a12	0.107044354
208	0x3d9cdfa6	0.07659845
209	0xbd54a494	-0.051914766
210	0x3e3fc189	0.18726172
211	0x3e24b077	0.16082941
212	0x3e1db2d1	0.15400244
213	0x3e27e793	0.16396932
214	0x3dbf668a	0.0934573
215	0xbe2a72d2	-0.16645363
216	0x3ce0bfb0	0.027435154
217	0x3cfaebc0	0.030629992
218	0x3dd40ad6	0.10353629
219	0xbe067dfc	-0.13133997
220	0xbe13ecbe	-0.14445779
221	0x3dc20f36	0.094755575
222	0x3dede272	0.11615457
223	0x3e07da39	0.13266839
224	0x3de43eca	0.111447886
225	0xbc0b1cb0	-0.008490726
226	0xbdf6f910	-0.12059224
227	0x3e336049	0.17517199
228	0x3d77a3fc	0.060459122
229	0x3d73fabc	0.05956529
230	0x3e3f5721	0.18685581
231	0xbdf01dc7	-0.117244296
232	0x3bbba7a0	0.0057267696
233	0x3d196c0c	0.037456557
234	0xbe17ca3d	-0.14823242
235	0xbcb83f40	-0.022491097
236	0xbde8c2c7	-0.11365276
237	0xbd31716c	-0.04332106
238	0x3c439cb0	0.011939213
239	0xbdb69b13	-0.08916297
240	0x3da2f492	0.07956804
241	0xbd3a9908	-0.0455561
242	0xbe20f505	-0.15718468
243	0x3de73212	0.11288847
244	0xbe233815	-0.15939362
245	0xbca51f80	-0.020156622
246	0xbe3a872a	-0.18215623
247	0xbe397800	-0.18112183
248	0xbda2ce20	-0.079494715
249	0xbab29800	-0.0013625622
250	0xbde1d127	-0.11026221
251	0xbe26d36b	-0.16291587
252	0xbe3f363b	-0.18673031
253	0xbe3d1795	-0.18466027
254	0xbe150f18	-0.14556539
255	0xbe3759a7	-0.17905293

conv1.bias f4 [16]
0	0xbe2495ca	-0.16072765
1	0x3e16e4cf	0.14735721
2	0x3e2cfc0d	0.16893025
3	0x3e29b929	0.16574539
4	0xbe4558f0	-0.19272208
5	0x3dea71c2	0.11447479
6	0x3dc0af1e	0.09408401
7	0xbca53750	-0.020167977
8	0xbe04f4e0	-0.12984037
9	0x3dbcbd92	0.09215845
10	0x3e49b5bb	0.19698231
11	0xbd535d58	-0.05160269
12	0x3e14bfe1	0.14526321
13	0xbd5fc794	-0.054633692
14	0x3e041f65	0.12902601
15	0x3cb2d950	0.021832138

bn1.weight f4 [16]
0	0x3e921e30	0.28538656
1	0x3f79da0f	0.97598356
2	0x3f3c35a4	0.7351935
3	0x3f37689a	0.71643984
4	0x3f7e0e7e	0.99240863
5	0x3f74eb00	0.9567108
6	0x3e2b4bf0	0.16728187
7	0x3e8ec83e	0.27887148
8	0x3f790a7b	0.97281617
9	0x3e39dd6c	0.18150872
10	0x3d91bec0	0.07116461
11	0x3f4cb835	0.7996858
12	0x3f601635	0.87533885
13	0x3f6e7d52	0.93159974
14	0x3f7be1eb	0.983916
15	0x3ede0cce	0.43369144

bn1.bias f4 [16]
0	0x00000000	0.0
1	0x00000000	0.0
2	0x00000000	0.0
3	0x00000000	0.0
4	0x00000000	0.0
5	0x00000000	0.0
6	0x00000000	0.0
7	0x00000000	0.0
8	0x00000000	0.0
9	0x00000000	0.0
10	0x00000000	0.0
11	0x00000000	0.0
12	0x00000000	0.0
13	0x00000000	0.0
14	0x00000000	0.0
15	0x00000000	0.0

bn1.running_mean f4 [16]
0	0x00000000	0.0
1	0x00000000	0.0
2	0x00000000	0.0
3	0x00000000	0.0
4	0x00000000	0.0
5	0x00000000	0.0
6	0x00000000	0.0
7	0x00000000	0.0
8	0x00000000	0.0
9	0x00000000	0.0
10	0x00000000	0.0
11	0x00000000	0.0
12	0x00000000	0.0
13	0x00000000	0.0
14	0x00000000	0.0
15	0x00000000	0.0

bn1.running_var f4 [16]
0	0x3f800000	1.0
1	0x3f800000	1.0
2	0x3f800000	1.0
3	0x3f800000	1.0
4	0x3f800000	1.0
5	0x3f800000	1.0
6	0x3f800000	1.0
7	0x3f800000	1.0
8	0x3f800000	1.0
9	0x3f800000	1.0
10	0x3f800000	1.0
11	0x3f800000	1.0
12	0x3f800000	1.0
13	0x3f800000	1.0
14	0x3f800000	1.0
15	0x3f800000	1.0

conv2.weight f4 [32, 16, 5, 5]
0	0xbcf422d0	-0.029801756
1	0xbc85a9f0	-0.016316384
2	0xbd275d30	-0.040860355
3	0xbc5dfdb8	-0.013549261
4	0xbc6502cc	-0.013977718
5	0xbce31cbd	-0.027723664
6	0xbd2fd360	-0.042926192
7	0x3d218741	0.03943563
8	0xbad86dc0	-0.00165122
9	0x3d41a621	0.047277573
10	0x3d3019d3	0.042993378
11	0x3d1a1b01	0.03762341
12	0xbce6e797	-0.028186603
13	0x3c3eca38	0.011644892
14	0xbc4716b4	-0.012151409
15	0xbccb22a0	-0.024796784
16	0x3c2c51a8	0.010517515
17	0xbb9f3510	-0.0048586205
18	0x3ce3126e	0.027718749
19	0xbd4843f2	-0.048892923
20	0x3d2048eb	0.03913204
21	0xbd129545	-0.035786886
22	0x3c0aafa8	0.008464731
23	0x3d236721	0.039893273
24	0xbc1e15d4	-0.009648759
25	0xbcfc5d57	-0.030806227
26	0x3ce5a872	0.028034423
27	0xbd4900fb	-0.0490732
28	0xbcb77dcd	-0.022398854
29	0xbd28c755	-0.041205723
30	0xbbf69590	-0.0075251535
31	0x3b4bdaa0	0.0031105652
32	0xbb948ff0	-0.0045337602
33	0xbd2fe00b	-0.042938273
34	0x3ae7af00	0.0017676055
35	0xbd2320e5	-0.039826293
36	0x3c5ceb64	0.013483856
37	0xbbc2b528	-0.0059420057
38	0xbcded9d7	-0.027203484
39	0xbb1d47d0	-0.0023999102
40	0x3d1f6afd	0.03892039
41	0xbd357dc7	-0.044309404
42	0xbd1dcd8e	-0.03852611
43	0x3cfdc05e	0.030975517
44	0xbca72870	-0.020405024
45	0xba57ab40	-0.00082271174
46	0x3d1853f9	0.037189458
47	0xbb388b00	-0.0028159022
48	0xbc79af98	-0.015239619
49	0xbbbf4d00	-0.0058380365
50	0xbd025d9c	-0.031827554
51	0xbcd09810	-0.025463134
52	0xbcdd93d7	-0.027048035
53	0x3cc7e4c2	0.024401072
54	0xbd2863b5	-0.041110713
55	0xbd17b89a	-0.037041284
56	0x3c127c08	0.008940704
57	0xbce5b91a	-0.028042365
58	0x3d3b3a5f	0.045709964
59	0x3d167ff3	0.036743116
60	0xbbccadc0	-0.0062462986
61	0x3cefe7ee	0.029285397
62	0xbca2ca5d	-0.019871885
63	0xbcd45233	-0.025918102
64	0x3c3d2d20	0.011546403
65	0x3d161d9b	0.036649328
66	0x3d3ed089	0.046585593
67	0xbd369be2	-0.044582255
68	0xbd02ef68	-0.031966597
69	0xbc6f3dcc	-0.014602136
70	0xbb8a84f0	-0.004227273
71	0xbd265743	-0.040610563
72	0xbb9f2510	-0.004856713
73	0xbd37240a	-0.044712104
74	0xbd15c140	-0.03656125
75	0xbc8499ba	-0.016186584
76	0xbc5cc448	-0.0134745315
77	0xbd0bfa9a	-0.03417454
78	0xbc86e2fc	-0.016465656
79	0xbd170843	-0.036873113
80	0x3cf9f0ca	0.030510325
81	0xbca011a0	-0.019539654
82	0xb9905100	-0.0002752617
83	0xbc965160	-0.01834935
84	0x3be41ac0	0.0069611967
85	0xbc550ba8	-0.013003267
86	0x3cca6672	0.024707053
87	0x3cc90dfe	0.024542805
88	0xbcead633	-0.028666591
89	0xbd0d3690	-0.034475863
90	0x3d0b03d1	0.033939186
91	0xbd1529c6	-0.03641679
92	0xbcb57acd	-0.022153283
93	0xbd48f3c0	-0.049060583
94	0xbc81beba	-0.015838016
95	0x3c7d338c	0.015454184
96	0x3cae15ee	0.021250691
97	0xbd2be46d	-0.04196589
98	0xbd09d256	-0.033647858
99	0xbba23370	-0.0049499795
100	0xbd0e7933	-0.034783553
101	0x3cf6fff2	0.030151341
102	0x3c51a34c	0.012795281
103	0xbd422d62	-0.04740656
104	0xbd20ad7d	-0.03922795
105	0xbd062a54	-0.03275521
106	0xbd47284d	-0.04862242
107	0x3d479091	0.048721854
108	0x3d1cbd09	0.038266215
109	0xbc003800	-0.007825851
110	0x3c092ee0	0.008372992
111	0x3d1b563b	0.037924033
112	0x3be005e8	0.0068366416
113	0xbd002ec0	-0.031294584
114	0xbbbe1080	-0.005800307
115	0xbd2cd8cb	-0.042198937
116	0x3cadd37a	0.021219004
117	0xbc8e16b4	-0.01734481
118	0xbd14ed65	-0.03635921
119	0xbd36a06b	-0.04458658
120	0xbd3064ad	-0.043064762
121	0x3ca6aa4e	0.02034488
122	0x3cc801f2	0.02441499
123	0x3cc4f1b2	0.02404103
124	0x3d49351b	0.04912291
125	0xbd3f6dfb	-0.046735745
126	0xbc8cf4c4	-0.017206557
127	0xbc5a966c	-0.013341527
128	0xbd188f23	-0.03724588
129	0xbd39adfa	-0.045331933
130	0x3a3a5400	0.0007107854
131	0xbc379338	-0.011204533
132	0x3d34319f	0.043992635
133	0xbd33079a	-0.04370842
134	0xbd32fbc5	-0.043697137
135	0x3c1092f8	0.008824103
136	0x3ba8f850	0.0051565543
137	0x3b491fb0	0.0030689053
138	0xbc973ef6	-0.01846264
139	0xbced1657	-0.028941317
140	0xbc762a98	-0.015024804
141	0x3c8309ea	0.015995938
142	0x3d3d1e0d	0.046171237
143	0x3b163550	0.002291996
144	0xbb85a410	-0.0040783957
145	0xbd3f2f05	-0.0466757
146	0x3b2ee760	0.0026688203
147	0x3d0b3621	0.03398717
148	0xbcb83eb7	-0.022490842
149	0x3d17f47d	0.037098397
150	0x3bff2940	0.0077869
151	0xbd4b0fea	-0.049575724
152	0x3b42eb00	0.0029742122
153	0x3d33f451	0.04393417
154	0x3cff0956	0.031132381
155	0xbcbed4a3	-0.023294752
156	0x3ccd5882	0.025066618
157	0xbb907cf0	-0.004409425
158	0xbc6fdb08	-0.014639623
159	0xbd3c4953	-0.045968365
160	0x3d17f77b	0.03710125
161	0xbceb3dc0	-0.028715968
162	0xbcb1c1fa	-0.02169894
163	0x3ca4ec1a	0.020132113
164	0xbc8b4ac6	-0.017003428
165	0xbd062c14	-0.03275688
166	0xbbdff798	-0.0068349354
167	0xbd308f22	-0.043105252
168	0x3c4bb7cc	0.012433957
169	0x3d2ddcb9	0.042446826
170	0xbcc55d30	-0.024092287
171	0x3b1671e0	0.0022956058
172	0x3cac92b2	0.021066044
173	0x3c46a328	0.01212386
174	0xbbcbd298	-0.006220173
175	0xbbd17570	-0.0063921735
176	0x3cc0a272	0.02351496
177	0x3cdad76a	0.026714046
178	0xbd2a56b5	-0.041586597
179	0xbd43c3c3	-0.047794115
180	0x3cf0ba6e	0.029385772
181	0xbb77ce20	-0.003781207
182	0x3d1d1357	0.038348522
183	0xbd0009a6	-0.0312592
184	0x3ce30552	0.027712498
185	0x3d23c0bf	0.03997874
186	0xbd1fe280	-0.039034367
187	0x3cd724d2	0.026262674
188	0x3c94e8d2	0.018177424
189	0xba5ffec0	-0.00085447356
190	0xbd04cebc	-0.03242372
191	0x3d2a4185	0.04156639
192	0xbba5d5d8	-0.0050608926
193	0xba449540	-0.00074990466
194	0x3c3ccf2c	0.011524003
195	0x3d3e8089	0.0465093
196	0xbd2b49be	-0.041818373
197	0x3cf2ee92	0.029654775
198	0xbc958eaa	-0.018256504
199	0xbce65e03	-0.028121
200	0x3c971b0e	0.018445518
201	0x3a809300	0.0009809434
202	0x3b46b8e0	0.0030322596
203	0x3d27f28b	0.04100279
204	0x3c09ada8	0.008403219
205	0xbcc1d857	-0.02366273
206	0xbb1e83a0	-0.0024187341
207	0x3d2b8263	0.041872393
208	0xbcf8ec03	-0.030385977
209	0xbc13b100	-0.009014368
210	0x3d1398ad	0.036034275
211	0xbd17e7f3	-0.03708644
212	0xbbd2f4d0	-0.0064378753
213	0x3c8a59ba	0.016888488
214	0xbc8e4906	-0.017368805
215	0x3c7f9a5c	0.015600767
216	0x3d1accb9	0.037792895
217	0x3be448b0	0.006966673
218	0x3b38bc50	0.0028188415
219	0x3d0a1691	0.033712927
220	0xbc742c08	-0.014903076
221	0x3d02a679	0.031897042
222	0x3c3af1d4	0.011410195
223	0xba926a40	-0.0011170581
224	0xbc83343a	-0.016016115
225	0xbc19d408	-0.009388931
226	0xbbbd7598	-0.0057818405
227	0xbd0c940d	-0.03432088
228	0x3ceee7ea	0.02916332
229	0x3d04edd1	0.032453362
230	0x3c33142c	0.010930102
231	0x3d1cbeed	0.03826802
232	0xbaccb760	-0.0015618615
233	0xbd3ab927	-0.04558673
234	0x3c470fe0	0.012149781
235	0x3d0ae373	0.03390832
236	0xbce902a0	-0.028443635
237	0x3c98cc9a	0.01865225
238	0x3cc10896	0.023563664
239	0xbc77ad74	-0.015117038
240	0x3d29412f	0.04132193
241	0xbc80868a	-0.015689153
242	0xbc86a3b6	-0.016435485
243	0x3d3649cf	0.044503983
244	0x3cd0f622	0.02550799
245	0x3d30501d	0.043045152
246	0x3c88f10e	0.016716506
247	0xbc8c8274	-0.017152049
248	0xbc8348f4	-0.016025998
249	0xbc24abf4	-0.010050762
250	0xbca31cd0	-0.0199112
251	0x3c96986e	0.018383231
252	0x3c88ac02	0.016683582
253	0x3bebd810	0.0071973875
254	0x3b944df0	0.0045258924
255	0x3c2b1888	0.01044286

conv2.bias f4 [32]
0	0xbd259f6a	-0.040435232
1	0x3c7b29c4	0.015329782
2	0xbcba5a2a	-0.022748072
3	0xbd41be10	-0.0473004
4	0xbce7fb17	-0.028317971
5	0x3c12d200	0.008961201
6	0xbbca7f68	-0.006179739
7	0x3caf461e	0.02139574
8	0xbd46cd62	-0.048535712
9	0xbcfb5ca3	-0.030683821
10	0xbcc703da	-0.024293829
11	0x3c61a05c	0.013771143
12	0x3cf3da62	0.029767219
13	0xbd2a64db	-0.04160009
14	0xbd07b75e	-0.033133857
15	0xbcff993d	-0.031201
16	0xbd0e3f1b	-0.03472815
17	0x3ceb9cc6	0.028761279
18	0x3d3837ab	0.044974964
19	0x3c0645ac	0.008195322
20	0xbbc5ba80	-0.0060341954
21	0xbd2b71d6	-0.04185661
22	0x3cf7e2fe	0.030259605
23	0xbc05edb8	-0.008174352
24	0xbcfa8dea	-0.030585248
25	0xbbf78950	-0.0075542107
26	0xbcf2ebad	-0.029653395
27	0x3d4734b1	0.048634235
28	0xbcf8260a	-0.030291576
29	0xbcac57fa	-0.021038044
30	0xbd226603	-0.039648067
31	0xbb5856a0	-0.0033010617

bn2.weight f4 [32]
0	0x3e346754	0.17617542
1	0x3f61c06f	0.88184255
2	0x3f751c8f	0.957467
3	0x3f0c874c	0.54893947
4	0x3ef0ec5a	0.47055322
5	0x3f46fb83	0.77727526
6	0x3f5fb88e	0.87390983
7	0x3ec0b660	0.3763914
8	0x3e861582	0.26188284
9	0x3f381c6a	0.71918356
10	0x3f36000e	0.71093833
11	0x3f048932	0.51771843
12	0x3f39c95b	0.7257287
13	0x3f01e88b	0.5074546
14	0x3f25effa	0.648193
15	0x3eae805e	0.3408231
16	0x3f3e11d5	0.7424596
17	0x3f475af6	0.7787317
18	0x3f6de0ae	0.9292096
19	0x3dbc0478	0.0918054
20	0x3eaefc54	0.34176886
21	0x3f39ffb2	0.72655785
22	0x3c047600	0.008084774
23	0x3efd1b1c	0.49434745
24	0x3cd64580	0.026156187
25	0x3f6b179e	0.9183291
26	0x3f0c2da0	0.5475712
27	0x3f47cefe	0.7805022
28	0x3ef7b48a	0.48379928
29	0x3e1ba9c8	0.15201485
30	0x3f178846	0.5919231
31	0x3ecd6c68	0.4012177

bn2.bias f4 [32]
0	0x00000000	0.0
1	0x00000000	0.0
2	0x00000000	0.0
3	0x00000000	0.0
4	0x00000000	0.0
5	0x00000000	0.0
6	0x00000000	0.0
7	0x00000000	0.0
8	0x00000000	0.0
9	0x00000000	0.0
10	0x00000000	0.0
11	0x00000000	0.0
12	0x00000000	0.0
13	0x00000000	0.0
14	0x00000000	0.0
15	0x00000000	0.0
16	0x00000000	0.0
17	0x00000000	0.0
18	0x00000000	0.0
19	0x00000000	0.0
20	0x00000000	0.0
21	0x00000000	0.0
22	0x00000000	0.0
23	0x00000000	0.0
24	0x00000000	0.0
25	0x00000000	0.0
26	0x00000000	0.0
27	0x00000000	0.0
28	0x00000000	0.0
29	0x00000000	0.0
30	0x00000000	0.0
31	0x00000000	0.0

bn2.running_mean f4 [32]
0	0x00000000	0.0
1	0x00000000	0.0
2	0x00000000	0.0
3	0x00000000	0.0
4	0x00000000	0.0
5	0x00000000	0.0
6	0x00000000	0.0
7	0x00000000	0.0
8	0x00000000	0.0
9	0x00000000	0.0
10	0x00000000	0.0
11	0x00000000	0.0
12	0x00000000	0.0
13	0x00000000	0.0
14	0x00000000	0.0
15	0x00000000	0.0
16	0x00000000	0.0
17	0x00000000	0.0
18	0x00000000	0.0
19	0x00000000	0.0
20	0x00000000	0.0
21	0x00000000	0.0
22	0x00000000	0.0
23	0x00000000	0.0
24	0x00000000	0.0
25	0x00000000	0.0
26	0x00000000	0.0
27	0x00000000	0.0
28	0x00000000	0.0
29	0x00000000	0.0
30	0x00000000	0.0
31	0x00000000	0.0

bn2.running_var f4 [32]
0	0x3f800000	1.0
1	0x3f800000	1.0
2	0x3f800000	1.0
3	0x3f800000	1.0
4	0x3f800000	1.0
5	0x3f800000	1.0
6	0x3f800000	1.0
7	0x3f800000	1.0
8	0x3f800000	1.0
9	0x3f800000	1.0
10	0x3f800000	1.0
11	0x3f800000	1.0
12	0x3f800000	1.0
13	0x3f800000	1.0
14	0x3f800000	1.0
15	0x3f800000	1.0
16	0x3f800000	1.0
17	0x3f800000	1.0
18	0x3f800000	1.0
19	0x3f800000	1.0
20	0x3f800000	1.0
21	0x3f800000	1.0
22	0x3f800000	1.0
23	0x3f800000	1.0
24	0x3f800000	1.0
25	0x3f800000	1.0
26	0x3f800000	1.0
27	0x3f800000	1.0
28	0x3f800000	1.0
29	0x3f800000	1.0
30	0x3f800000	1.0
31	0x3f800000	1.0

conv3.weight f4 [32, 32, 5, 5]
0	0xbba770ec	-0.005109897
1	0x3c5560a8	0.013023533
2	0x3c3bb9d8	0.011457883
3	0x3d09f6d1	0.033682648
4	0xbcc38898	-0.023868844
5	0xbc9c2830	-0.019062132
6	0xba5e4f40	-0.0008480437
7	0xbc328a06	-0.010897165
8	0xbbd88c54	-0.0066085253
9	0xbbac5438	-0.005259063
10	0xbc4f5960	-0.012655586
11	0xbcd688cf	-0.026188282
12	0x3b9576f8	0.0045613013
13	0x3b7d0150	0.0038605519
14	0x3c8451b8	0.016152248
15	0xbb237a90	-0.002494488
16	0xbcf2c594	-0.029635228
17	0xbadc4ba0	-0.0016807206
18	0xbba39cb0	-0.004993044
19	0xbcb42a43	-0.021992808
20	0x3d05306b	0.032516878
21	0x3bffb4e8	0.007803548
22	0x3cb70cca	0.022344965
23	0x3c0c8278	0.008576028
24	0xbb17d700	-0.0023168921
25	0x3cec05e2	0.028811399
26	0x3c3e9054	0.01163109
27	0x3cd1b8a2	0.025600735
28	0xbc80f7e5	-0.015743205
29	0xbc92a950	-0.017903
30	0x3d08c7af	0.033393558
31	0x3aa637a0	0.0012681372
32	0xbc1007d6	-0.008790931
33	0xbd07085f	-0.032966968
34	0xbcda493f	-0.026646255
35	0xbc5e6f2c	-0.01357631
36	0x3c9cf8cc	0.019161604
37	0xbc9ab869	-0.018886762
38	0xbbb6469c	-0.0055626165
39	0xbb1d32a0	-0.0023986474
40	0xbc929370	-0.01789257
41	0xbc91b611	-0.017787011
42	0xbc0f5f8c	-0.0087508075
43	0x3cf6db76	0.030133944
44	0x3c9595c6	0.018259894
45	0xbc9d3a31	-0.019192787
46	0xbcbf2399	-0.023332404
47	0xbc97e991	-0.01854399
48	0xbcdbd348	-0.026834145
49	0xbd039593	-0.032125067
50	0x3cc0d8f2	0.023540948
51	0xbbff3560	-0.007788345
52	0xbcf4a1cc	-0.029862307
53	0xbcc32f94	-0.023826398
54	0xbc8d34fb	-0.017237177
55	0x3cd324e8	0.025774434
56	0xbc3d3c10	-0.011549965
57	0xbce69f98	-0.028152272
58	0x3d0eac1d	0.03483211
59	0xbcabee82	-0.020987753
60	0x3d040901	0.03223515
61	0xbb832f00	-0.0040034056
62	0xbd01ca0a	-0.03168682
63	0xbc0b42aa	-0.008499781
64	0xbd047be9	-0.032344732
65	0x3b9b7e90	0.004745312
66	0xbcbc6ab5	-0.0230001
67	0x3d0a8161	0.03381479
68	0x3ae98960	0.001781743
69	0x3d08aec7	0.033369806
70	0x3c99c854	0.018772282
71	0xbca95378	-0.020669684
72	0xbacd20c0	-0.0015650019
73	0x3c990440	0.018678784
74	0x3c0a556c	0.008443218
75	0xb9b94c80	-0.00035342947
76	0x3d0b1909	0.033959422
77	0x3cb26966	0.021778774
78	0xbc84c466	-0.016206931
79	0x3a98c640	0.0011655763
80	0x3ba96328	0.005169291
81	0xbcb862c0	-0.022508025
82	0xbcda54bf	-0.026651738
83	0xbcb25e8c	-0.0217736
84	0xbd02dec0	-0.031950712
85	0xbc37e82e	-0.01122479
86	0x3c8e2f88	0.017356649
87	0x3c8451a0	0.016152203
88	0xbc4e638e	-0.012596978
89	0x3bd173c8	0.006391976
90	0x3cb8fb9e	0.022580918
91	0x3bf4e618	0.0074737184
92	0x3cc5bd7c	0.024138205
93	0x3c458f80	0.012058139
94	0xbcd3a65e	-0.025836166
95	0xbd0215fd	-0.03175925
96	0xbc700900	-0.014650583
97	0xbceb2600	-0.028704643
98	0x3cf1de96	0.029525083
99	0xbbb13dfc	-0.0054090004
100	0xbb8b3520	-0.0042482764
101	0xbc966c39	-0.018362151
102	0xbcc24bd6	-0.023717802
103	0x3d01ed63	0.03172053
104	0xbc8a1da4	-0.016859837
105	0xbcaba8ca	-0.020954508
106	0x3cddbb18	0.027066752
107	0xbcd0f2fa	-0.025506485
108	0x3cf072fe	0.029351708
109	0xbb6bf060	-0.003600143
110	0x3cf4613e	0.029831525
111	0x3d052365	0.032504458
112	0x3c543b80	0.012953639
113	0x3c83bb14	0.016080417
114	0x3c49ab60	0.012308925
115	0xbd07a184	-0.033113018
116	0x3c88f854	0.016719975
117	0x3b8679c0	0.004103869
118	0x3d032243	0.032015096
119	0x3ce50986	0.027958643
120	0x3c310e60	0.01080665
121	0x3cbe8bdc	0.02326005
122	0xbc8bdcaa	-0.017072994
123	0x3cc4891a	0.023991156
124	0xbce770af	-0.028251974
125	0x3bac7658	0.005263131
126	0xbc8f9119	-0.017525243
127	0xbcdaefe0	-0.02672571
128	0x3c5c2290	0.013435975
129	0x3c6dfff8	0.01452636
130	0xbcd39158	-0.025826141
131	0xbcd46635	-0.025927642
132	0xbd0b7d39	-0.03405497
133	0x3d02520f	0.03181654
134	0x3c9dcd62	0.019262973
135	0xbc7ee02c	-0.015556376
136	0x3c567320	0.013088971
137	0x3c9d2bb8	0.019185886
138	0x3cb72502	0.022356514
139	0xbccb8d76	-0.024847727
140	0xbc786f78	-0.015163295
141	0xbd06b7fc	-0.032890305
142	0xbceafd16	-0.028685134
143	0x3c620e18	0.0137973055
144	0xbd08a847	-0.033363607
145	0x3cf5790e	0.02996495
146	0xbcc9b4b2	-0.024622295
147	0xbc4ce3d2	-0.0125054885
148	0x3c472e90	0.012157097
149	0xbcb73634	-0.022364713
150	0x3cd7f478	0.026361689
151	0x3c69ad40	0.014262497
152	0xbd04cc35	-0.03242131
153	0xbd0d5a8d	-0.034510184
154	0x3cb4004c	0.021972798
155	0xbccee21b	-0.0252543
156	0xbd0928ec	-0.03348629
157	0x3c4e37c4	0.012586538
158	0x3d093853	0.03350098
159	0xbc1078cc	-0.008817863
160	0xbcef2fd6	-0.029197615
161	0x3d0b4969	0.034005556
162	0xbcab476e	-0.020908084
163	0x3c9deefe	0.019279
164	0xbc1849f6	-0.009294977
165	0xbc1a581a	-0.009420419
166	0xbd048e58	-0.032362312
167	0x3cbccb8e	0.023046281
168	0x3d0f17f3	0.03493495
169	0x3c910740	0.017703652
170	0xbc990d29	-0.018683033
171	0x3cdf220a	0.02723791
172	0x3c9ba1ea	0.018998105
173	0x3b84f200	0.004057169
174	0x3c159eb8	0.00913208
175	0xba921280	-0.001114443
176	0x3cd197be	0.025585052
177	0xbbc26dec	-0.005933514
178	0xbc98f445	-0.018671164
179	0x3cfe7906	0.031063568
180	0xba890320	-0.0010453202
181	0xbcb92a27	-0.022603108
182	0xbd108af7	-0.035288777
183	0x3bd09998	0.006365966
184	0xbbbe07ac	-0.0057992544
185	0xbc4f8e92	-0.012668269
186	0xbc00d9bc	-0.007864412
187	0x3cea2b4a	0.028585095
188	0x3c07008c	0.0082398765
189	0x3ba07ae8	0.004897464
190	0x3c83122c	0.015999876
191	0x3cfd9992	0.030957017
192	0xbc9e5ae2	-0.019330446
193	0x3c13f88c	0.009031426
194	0xbc247ab0	-0.010039017
195	0x3d0dff87	0.034667518
196	0xba503cc0	-0.0007943623
197	0x3d0c855b	0.034306865
198	0xbceffe1b	-0.029295972
199	0xbcb43be5	-0.022001216
200	0xbcdb3fd5	-0.026763836
201	0x3c8e3614	0.01735977
202	0x3c7ab230	0.015301272
203	0xbcdeac56	-0.027181786
204	0x3c36093c	0.0111106
205	0xbc959901	-0.018261435
206	0x3d0c8e79	0.03431556
207	0x3cfe7e4e	0.031066086
208	0x3c81ae0e	0.015830066
209	0x3cf7771a	0.03020816
210	0xbbc03b60	-0.005866453
211	0xbcdb0085	-0.026733646
212	0xbd0ea814	-0.03482826
213	0x3d0e8c73	0.03480191
214	0xbc6a78e2	-0.014311047
215	0xbc740e1a	-0.01489594
216	0x3c12dae4	0.00896332
217	0x3c9b9efe	0.018996712
218	0x3d02aa5d	0.031900752
219	0xbcb3e49a	-0.021959592
220	0x3c3b8be8	0.0114469305
221	0x3cc8b032	0.024498079
222	0x3cd8ca76	0.026463728
223	0x3cc6fc78	0.024290308
224	0xbce3c0f6	-0.027801972
225	0x3c84dfac	0.016219936
226	0xbcdd3916	-0.02700476
227	0xba9f61e0	-0.0012159906
228	0xbce5acbc	-0.028036468
229	0x3c0a3cf4	0.008437384
230	0xbcfd232d	-0.030900562
231	0xbc4b3a76	-0.012404075
232	0xbc0eb3f2	-0.0087098945
233	0x3c86a5ea	0.016436536
234	0xba94d920	-0.0011356212
235	0x3c284318	0.010269903
236	0x3c94c868	0.018161967
237	0x3cb38cb6	0.021917682
238	0xbc2f758c	-0.010709178
239	0x3c925d98	0.017866895
240	0xbc836b50	-0.016042382
241	0xbd0d0cd9	-0.03443608
242	0xbcbb24a0	-0.022844613
243	0x3b5d0450	0.0033724494
244	0x3b131900	0.002244532
245	0xbc62b750	-0.01383765
246	0x3d05dddf	0.032682296
247	0x3c049484	0.0080920495
248	0x3ab740c0	0.0013981089
249	0x3c8492b2	0.016183231
250	0xbb777700	-0.0037760139
251	0x3c98ad3a	0.018637288
252	0x3b6ffd10	0.0036619343
253	0xbb5daf50	-0.0033826418
254	0xbcb4b7e0	-0.022060335
255	0xbcfef935	-0.03112469

conv3.bias f4 [32]
0	0xbc3dfff4	-0.0115966685
1	0x3b91d680	0.004450619
2	0xbd02ee1a	-0.031965353
3	0xbce82582	-0.028338198
4	0xbafc62a0	-0.0019255467
5	0x3c90725c	0.017632656
6	0x3d0ebae5	0.034846205
7	0x3c0c7cb4	0.008574653
8	0xbcfa0390	-0.030519277
9	0x3cd74152	0.026276264
10	0x3ce3b092	0.027794156
11	0xba7fc9c0	-0.0009757541
12	0xbc49abba	-0.012309009
13	0x3d043665	0.032278437
14	0xbc14370e	-0.009046329
15	0x3ccdb00e	0.025108363
16	0x3ba8a0e8	0.0051461346
17	0xbc9e3dd5	-0.019316593
18	0x3c8028e0	0.01564449
19	0x3c726170	0.014793739
20	0xbc748ad2	-0.0149256755
21	0xbc01cf9a	-0.007923031
22	0xbc02bc2e	-0.007979436
23	0xbc054b9e	-0.008135704
24	0xbcb070cf	-0.021538166
25	0x3d05c211	0.03265578
26	0xbc1c37f2	-0.009534823
27	0xbc9f9d2f	-0.01948413
28	0x3c182704	0.009286646
29	0x3bde5390	0.006784864
30	0x389a5e00	7.360801e-05
31	0xbd0fbee2	-0.03509415

bn3.weight f4 [32]
0	0x3ee08080	0.43848038
1	0x3b594b00	0.0033156276
2	0x3d24bad0	0.04021722
3	0x3ea52efc	0.3226241
4	0x3eff47fc	0.49859607
5	0x3e7900d4	0.24316722
6	0x3f188650	0.59579945
7	0x3f31fb74	0.6952431
8	0x3e9d8f2e	0.307733
9	0x3dfc3da0	0.123164415
10	0x3f65d24e	0.89774024
11	0x3ec40ca4	0.38290894
12	0x3f10264d	0.5630844
13	0x3e5365ac	0.20644253
14	0x3f16e2a5	0.5893958
15	0x3f77a57e	0.96736896
16	0x3ebacd04	0.3648454
17	0x3f204254	0.6260121
18	0x3f28a3fd	0.65875226
19	0x3eaba160	0.33521557
20	0x3ecc0090	0.3984418
21	0x3f59dc09	0.8510137
22	0x3f6cd923	0.92518824
23	0x3f54ee80	0.8317642
24	0x3f4887e8	0.78332376
25	0x3e4913c4	0.19636446
26	0x3ecf40dc	0.4047917
27	0x3e269534	0.16267854
28	0x3f7434ac	0.9539287
29	0x3e55f524	0.20894295
30	0x3ecea942	0.40363508
31	0x3f3b2213	0.7309887

bn3.bias f4 [32]
0	0x00000000	0.0
1	0x00000000	0.0
2	0x00000000	0.0
3	0x00000000	0.0
4	0x00000000	0.0
5	0x00000000	0.0
6	0x00000000	0.0
7	0x00000000	0.0
8	0x00000000	0.0
9	0x00000000	0.0
10	0x00000000	0.0
11	0x00000000	0.0
12	0x00000000	0.0
13	0x00000000	0.0
14	0x00000000	0.0
15	0x00000000	0.0
16	0x00000000	0.0
17	0x00000000	0.0
18	0x00000000	0.0
19	0x00000000	0.0
20	0x00000000	0.0
21	0x00000000	0.0
22	0x00000000	0.0
23	0x00000000	0.0
24	0x00000000	0.0
25	0x00000000	0.0
26	0x00000000	0.0
27	0x00000000	0.0
28	0x00000000	0.0
29	0x00000000	0.0
30	0x00000000	0.0
31	0x00000000	0.0

bn3.running_mean f4 [32]
0	0x00000000	0.0
1	0x00000000	0.0
2	0x00000000	0.0
3	0x00000000	0.0
4	0x00000000	0.0
5	0x00000000	0.0
6	0x00000000	0.0
7	0x00000000	0.0
8	0x00000000	0.0
9	0x00000000	0.0
10	0x00000000	0.0
11	0x00000000	0.0
12	0x00000000	0.0
13	0x00000000	0.0
14	0x00000000	0.0
15	0x00000000	0.0
16	0x00000000	0.0
17	0x00000000	0.0
18	0x00000000	0.0
19	0x00000000	0.0
20	0x00000000	0.0
21	0x00000000	0.0
22	0x00000000	0.0
23	0x00000000	0.0
24	0x00000000	0.0
25	0x00000000	0.0
26	0x00000000	0.0
27	0x00000000	0.0
28	0x00000000	0.0
29	0x00000000	0.0
30	0x00000000	0.0
31	0x00000000	0.0

bn3.running_var f4 [32]
0	0x3f800000	1.0
1	0x3f800000	1.0
2	0x3f800000	1.0
3	0x3f800000	1.0
4	0x3f800000	1.0
5	0x3f800000	1.0
6	0x3f800000	1.0
7	0x3f800000	1.0
8	0x3f800000	1.0
9	0x3f800000	1.0
10	0x3f800000	1.0
11	0x3f800000	1.0
12	0x3f800000	1.0
13	0x3f800000	1.0
14	0x3f800000	1.0
15	0x3f800000	1.0
16	0x3f800000	1.0
17	0x3f800000	1.0
18	0x3f800000	1.0
19	0x3f800000	1.0
20	0x3f800000	1.0
21	0x3f800000	1.0
22	0x3f800000	1.0
23	0x3f800000	1.0
24	0x3f800000	1.0
25	0x3f800000	1.0
26	0x3f800000	1.0
27	0x3f800000	1.0
28	0x3f800000	1.0
29	0x3f800000	1.0
30	0x3f800000	1.0
31	0x3f800000	1.0

head.weight f4 [3, 576]
0	0xbcff11e0	-0.031136453
1	0xbc4ca4d6	-0.012490472
2	0xb9b14c80	-0.00033817068
3	0xbc25ab44	-0.010111634
4	0xbc09dcc4	-0.008414451
5	0x3d24fe0d	0.040281344
6	0xbcc951bb	-0.024575105
7	0x3d0a0615	0.033697207
8	0xbcfd8986	-0.030949365
9	0xbca65218	-0.020302817
10	0x3c8418ce	0.016125109
11	0xbb8a2180	-0.0042154193
12	0x3c10e470	0.008843526
13	0xbd0cb927	-0.034356263
14	0xbc8797eb	-0.016551932
15	0xbc2aba1c	-0.0104203485
16	0xbcf56a30	-0.02995786
17	0xbd085787	-0.033286598
18	0x3d24bb45	0.040217657
19	0xbc658b80	-0.01401031
20	0xbc832cf8	-0.016012654
21	0x3c953338	0.0182129
22	0xbd0228f7	-0.03177735
23	0x3c85b490	0.01632145
24	0xbd22195c	-0.039574966
25	0xbcc83280	-0.024438143
26	0xbadd6de0	-0.0016893707
27	0x3b758df0	0.0037468635
28	0x3cc38226	0.02386577
29	0xbb8952a8	-0.0041907616
30	0x3d07d771	0.033164445
31	0xbcfdbd36	-0.030974012
32	0xbcf3c870	-0.029758662
33	0x3cf4507e	0.029823538
34	0x3c3f6adc	0.011683192
35	0xbce952eb	-0.028481921
36	0xbd28667c	-0.04111336
37	0x3ccdf966	0.025143337
38	0xbb3957b0	-0.0028281026
39	0x3ab06e00	0.0013460517
40	0xbbc0e0d8	-0.0058861785
41	0xbc44316c	-0.011974674
42	0xbc288160	-0.010284752
43	0x3c87bbd6	0.01656906
44	0xbcb6b656	-0.022303741
45	0xbc85c6d6	-0.016330164
46	0xbc3d1a70	-0.011541948
47	0xbba59960	-0.005053684
48	0xbd0be95f	-0.034158107
49	0x3c366000	0.011131287
50	0x3c971d32	0.018446539
51	0x3cfd18ee	0.030895676
52	0x3bc2bf48	0.0059432127
53	0x3cce260a	0.025164623
54	0x3c94d800	0.018169403
55	0x3cc58336	0.024110418
56	0xbc0446b0	-0.008073494
57	0xbc9c80ce	-0.019104388
58	0x3c6dcef4	0.0145146735
59	0xba9cfc20	-0.0011976995
60	0x3c94fda8	0.018187359
61	0x3d1ce1ff	0.038301464
62	0xbc17eab0	-0.009272262
63	0x3d163117	0.03666791
64	0x3d08766d	0.033316065
65	0xbd1bb862	-0.038017638
66	0x3cc63062	0.024192993
67	0xbd23ccf6	-0.039990388
68	0x3b8cee08	0.0043008365
69	0xbb837fb8	-0.004013028
70	0x3ba74300	0.0051044226
71	0x3d0eb0bd	0.03483652
72	0xbce1679b	-0.027515223
73	0x3c9883ea	0.018617589
74	0x3d264027	0.040588524
75	0x3cb75b62	0.022382442
76	0xbd19e15a	-0.037568428
77	0x3c8e46ce	0.017367747
78	0xbb7b6340	-0.0038358718
79	0xbc10554c	-0.008809399
80	0xbc6c9fd0	-0.014442399
81	0x3c07866c	0.008271795
82	0xbd117de0	-0.035520434
83	0xbccd59b0	-0.02506718
84	0x3b02cd30	0.0019958727
85	0x3d13fa75	0.036127526
86	0x3c9a076e	0.01880237
87	0x3c73b050	0.014873579
88	0xbd11a61a	-0.035558797
89	0x3d11e963	0.035622966
90	0x3c24e7f0	0.010065064
91	0x3d044541	0.03229261
92	0x3d08ebd5	0.033428032
93	0xbcb0cef3	-0.021583056
94	0x3cdc0292	0.026856694
95	0x392c0300	0.00016404316
96	0xbc05764c	-0.00814588
97	0x3cdecaf6	0.027196389
98	0x3cb8d882	0.022564176
99	0x3c3dfe00	0.011596203
100	0x3d268ed9	0.040663574
101	0xbd00f042	-0.031479128
102	0x3cbff412	0.023431811
103	0xbce1bb10	-0.027555019
104	0x3cf7313a	0.03017484
105	0x3c664310	0.014054075
106	0xbd0f8ff6	-0.0350494
107	0x3abfcf00	0.0014633834
108	0x3ca0914a	0.01960053
109	0x3d204453	0.03912766
110	0xbc364756	-0.011125406
111	0x3ce7361a	0.02822404
112	0xbc878453	-0.01654259
113	0x3c8882de	0.016663965
114	0xbcbe2e48	-0.023215428
115	0x3c515a3c	0.012777861
116	0x3c813512	0.015772376
117	0xbcfce77e	-0.030872103
118	0x3cb6ed5a	0.022329975
119	0x3af2efa0	0.0018534549
120	0xbd0fbdf4	-0.035093263
121	0x3d293f2f	0.041320022
122	0xbd03c357	-0.032168712
123	0x3cb8bad6	0.022550028
124	0xbbab5720	-0.005228892
125	0xbc33a60c	-0.010964882
126	0xbd25380f	-0.040336665
127	0xbba19178	-0.0049306713
128	0x3b844cb8	0.004037466
129	0x3ca75c62	0.020429794
130	0xb9b65000	-0.0003477335
131	0x3bb09f38	0.005390074
132	0xbaee9d80	-0.0018204898
133	0xbc84389b	-0.016140273
134	0x3cbbf5da	0.02294438
135	0x3c89a148	0.016800538
136	0x3bacb128	0.005270142
137	0x3ce5f49a	0.028070737
138	0xbd0452db	-0.03230558
139	0x3cb69cb2	0.022291515
140	0xbd03b393	-0.032153677
141	0xbb1dafc0	-0.0024061054
142	0x3c83c4ee	0.016085114
143	0x3c5b78f0	0.013395533
144	0x3d0785d1	0.0330866
145	0xbce1ae00	-0.02754879
146	0x3ce6d77a	0.02817892
147	0x3c28efd0	0.010311082
148	0xbcc9dd60	-0.024641693
149	0xbbdabf88	-0.0066756643
150	0x3cd5ea8a	0.026112814
151	0x3c34aa04	0.011026863
152	0x3cdb9802	0.026805881
153	0xbd07a980	-0.033120632
154	0xb96d5c00	-0.00022636354
155	0x3ce87d2e	0.028380003
156	0xbc3ae120	-0.011406213
157	0x3d1fb785	0.038993377
158	0xbade05e0	-0.0016939007
159	0x3cf3f0b6	0.029777866
160	0xbd1b2774	-0.037879422
161	0xbd27e07b	-0.040985566
162	0x3cc5885a	0.024112869
163	0x3d1690fb	0.036759358
164	0xbcdf1fee	-0.027236905
165	0x3cda2baa	0.026632149
166	0xbc4a9856	-0.012365421
167	0x3d1b0f49	0.037856374
168	0x3d0b063d	0.033941496
169	0xbd1ee72e	-0.03879469
170	0xbcae312e	-0.021263685
171	0xbc7539a0	-0.014967352
172	0x3c95226a	0.018204886
173	0xbc096be4	-0.00838754
174	0xbd1be986	-0.038064502
175	0xbc0f0154	-0.008728344
176	0xbd18d718	-0.037314504
177	0xba4ff000	-0.0007932186
178	0xbcfaf033	-0.030632114
179	0x3c2fc0a4	0.010727081
180	0xbbc28c08	-0.005937103
181	0xbc8836ab	-0.01662763
182	0xbcc9f0ce	-0.024650957
183	0xbce2cb93	-0.027684962
184	0xbc6e670c	-0.0145509355
185	0xbb363690	-0.0027803518
186	0xbc12899c	-0.008943941
187	0xbd1e44c6	-0.038639806
188	0x3cad729a	0.02117281
189	0xbcac22a0	-0.021012604
190	0xbc2b0f2c	-0.010440629
191	0x3cefd3e2	0.029275838
192	0x3bd8bab8	0.0066140555
193	0x3bb30fd8	0.005464535
194	0xbcc8f973	-0.02453301
195	0xbd08f2ce	-0.03343468
196	0x3b015970	0.0019737147
197	0xbccaf2d3	-0.02477399
198	0xbc8a7073	-0.016899323
199	0xbcc91f36	-0.024551015
200	0x3d27046d	0.040775705
201	0xbbe6b420	-0.0070405155
202	0x3d21a36f	0.039462503
203	0xbacdaa60	-0.0015691034
204	0xbc1ac050	-0.009445265
205	0x3d071139	0.03297541
206	0x3c6202f0	0.013794646
207	0xbcf5bbb0	-0.029996723
208	0xbce39f76	-0.027785998
209	0x3cc0300a	0.023460407
210	0x3c695610	0.01424171
211	0xbc9f6146	-0.019455563
212	0xbc2abe6c	-0.010421377
213	0x3bad2e00	0.0052850246
214	0x3bbaff20	0.005706683
215	0xbbbfbce0	-0.005851373
216	0x3d126ed1	0.035750214
217	0xbc995806	-0.01871873
218	0xbc3eb31c	-0.011639383
219	0xbd018bdb	-0.031627517
220	0xbd04043e	-0.03223061
221	0xbc82b2b8	-0.01595436
222	0x3b2cba80	0.002635628
223	0x39f36680	0.0004642494
224	0x3c49e7e0	0.01232335
225	0x3d1dde69	0.038542185
226	0xbcb774bb	-0.022394529
227	0x3d0a8ff3	0.033828687
228	0x3c399be4	0.011328671
229	0x3d11d8c1	0.035607103
230	0xbceb8a5b	-0.028752496
231	0xbccdbffb	-0.025115957
232	0x3c30cc64	0.010790918
233	0xbb7f8270	-0.003898766
234	0xbc9b8a03	-0.018986708
235	0xbc9e464b	-0.019320628
236	0x3cd3ce42	0.025855187
237	0xbc81b686	-0.015834104
238	0xbd03ae22	-0.032148488
239	0xbcedf513	-0.029047525
240	0x3cf57e5a	0.029967476
241	0x3c6a5ac4	0.014303867
242	0x3d0abbc9	0.033870492
243	0x3c9b5022	0.018959109
244	0x3d045f65	0.032317538
245	0xbc1b5da4	-0.009482775
246	0xbcbc298b	-0.022969028
247	0x3b01c090	0.0019798614
248	0xbc4760bc	-0.012169059
249	0xbcf4bbf0	-0.029874772
250	0x3c97ea50	0.018544346
251	0xbcd271bb	-0.025688997
252	0x3c60ddf0	0.013724789
253	0xbab24160	-0.0013599806
254	0x3c257cc0	0.0101005435
255	0xbbf275e8	-0.0073993094

head.bias f4 [3]
0	0xbcbd594e	-0.023113873
1	0x3ca3ea0a	0.02000906
2	0xbc224760	-0.009904712

conv1.weight f4 [16, 1, 5, 5]
0	0xbdca978a	-0.09892185
1	0xbdfbd82a	-0.122970894
2	0x3e265301	0.16242601
3	0x3d5bd1d4	0.053666905
4	0xbe42049b	-0.1894707
5	0x3d4b23a8	0.04959455
6	0x3cddf618	0.027094886
7	0xbd4cf4ec	-0.050038263
8	0x3da84352	0.08215965
9	0x3d802aee	0.06258188
10	0xbe2f8ac7	-0.17142783
11	0x3de43476	0.11142819
12	0xbe0b0ba0	-0.13578653
13	0xbe02a830	-0.12759471
14	0xbc5281a0	-0.012848288
15	0x3d033be0	0.032039523
16	0xbe42f553	-0.19038896
17	0x3e2ed003	0.17071538
18	0x3de7339a	0.11289139
19	0x3e088ab3	0.1333416
20	0xbd5e5df8	-0.054288834
21	0x3daae08a	0.08343609
22	0xbca1bb90	-0.019742757
23	0x3e37dfed	0.17956515
24	0xbd20c3d4	-0.039249256
25	0xbd66c3d4	-0.0563391
26	0x3de9e2b2	0.11420192
27	0x3dcf7eb6	0.1013159
28	0xbd31b480	-0.04338503
29	0xbd8d4384	-0.06897643
30	0xbe172983	-0.14761929
31	0xbd7d2918	-0.06180677
32	0xbdb45270	-0.08804786
33	0xbd81c430	-0.06336248
34	0x3e306293	0.17225103
35	0x3e18946f	0.14900373
36	0xbd97465a	-0.07386465
37	0xbc8fb9f0	-0.017544717
38	0x3e2d7ef7	0.16942964
39	0xbc848950	-0.016178757
40	0xbd922630	-0.0713619
41	0xbd973044	-0.07382253
42	0xbe38890f	-0.18021034
43	0x3de860be	0.11346577
44	0xbe498fb2	-0.19683722
45	0x3bedfcc0	0.007262796
46	0x3e0b632d	0.13612051
47	0x3e3820f9	0.17981328
48	0x3e3c2a6f	0.18375562
49	0xbdf0a33a	-0.11749883
50	0xbdc50be7	-0.09621411
51	0xbd854dda	-0.0650899
52	0xbdd0bc0a	-0.101921156
53	0xbe1cda68	-0.1531769
54	0xbe3a1343	-0.1817141
55	0x3d5fae8c	0.05460982
56	0xbd87d19a	-0.06631775
57	0x3e300db7	0.17192732
58	0xbc44ead0	-0.012018874
59	0xbe295c60	-0.16539145
60	0xbe48bfe8	-0.19604456
61	0x3e22d9c9	0.15903391
62	0x3dbc650a	0.09198959
63	0x3d100248	0.035158426
64	0xbd0f2bac	-0.034953758
65	0xbe4a2cb2	-0.19743612
66	0x3e417ea7	0.1889597
67	0x3c9a7a30	0.018857092
68	0xbcfc68e8	-0.030811742
69	0x3de0750e	0.109598264
70	0x3da8016e	0.08203398
71	0xbe128b62	-0.14310983
72	0x3dd5c9da	0.10438891
73	0xbb49dec0	-0.0030802935
74	0x3d8a7e56	0.06762378
75	0x3e1a8d69	0.15093006
76	0x3daebf86	0.08532624
77	0x3d2785ec	0.040899202
78	0x3e1f76bd	0.15572639
79	0xbd5a8b8c	-0.05335574
80	0xbe3b04f5	-0.1826361
81	0x3e19a421	0.15004016
82	0x3c5c0a80	0.013430238
83	0x3d151a88	0.036402255
84	0x3e11d3cd	0.14240952
85	0x3df32866	0.1187294
86	0x3dc4e532	0.09614028
87	0x3c7312d0	0.014836028
88	0xbd206758	-0.039161056
89	0x3e1cbd71	0.15306641
90	0xbd2dbd40	-0.04241681
91	0xbbdf34a0	-0.0068116933
92	0xbd6373f8	-0.05553052
93	0x3d9e086e	0.077164516
94	0x3d41b4c8	0.047291547
95	0xbd76cae0	-0.06025207
96	0xbe2ab332	-0.1666992
97	0xbe411e32	-0.18859175
98	0xbcfb13c0	-0.030649066
99	0x3e0e3723	0.1388822
100	0xbdf36317	-0.11884134
101	0x3dc7f102	0.097627655
102	0x3d3eccd8	0.046582073
103	0xbcb38300	-0.021913052
104	0x3dbdb7be	0.09263562
105	0x3d93d0c2	0.07217552
106	0x3cc1d1b0	0.023659557
107	0x3cba6c18	0.022756621
108	0x3d7c985c	0.06166874
109	0x39c4c000	0.00037527084
110	0x3b406d80	0.0029362142
111	0xbcba7580	-0.022761106
112	0x3e36f675	0.17867453
113	0xbdd62800	-0.10456848
114	0x3dace566	0.08442192
115	0x3e2c9c31	0.16856457
116	0x3e33d999	0.17563476
117	0xbd3b8cd8	-0.045788616
118	0xbe4c99d3	-0.19980554
119	0x3dc6e172	0.09710969
120	0xbdbfc2f0	-0.09363353
121	0xbdd33b7d	-0.10314081
122	0x3de827ba	0.11335702
123	0xbd9f9353	-0.07791772
124	0x3dd09766	0.10185127
125	0xbd898926	-0.06715612
126	0x3e15dc43	0.14634804
127	0xbe3bce58	-0.18340433
128	0xbdfb654d	-0.12275181
129	0x3e17d3b9	0.1482686
130	0xbe387330	-0.1801269
131	0x3e346bcf	0.1761925
132	0x3bea30c0	0.0071469247
133	0x3d3f4a60	0.04670179
134	0xbd6fff74	-0.05859323
135	0x3dea5de2	0.11443688
136	0xbe2ed1d7	-0.17072235
137	0xbe21f5ad	-0.15816374
138	0xbd812436	-0.06305735
139	0x3c138780	0.009004474
140	0xbdddf99a	-0.10838623
141	0xbb04aa80	-0.0020243227
142	0xbdf4ff2a	-0.11962731
143	0x3c62a7b0	0.013833925
144	0x3d5f3c24	0.054500714
145	0xbd611400	-0.054950714
146	0xbe37bef3	-0.17943935
147	0xbdc3f103	-0.09567454
148	0x3d8cef26	0.068815514
149	0x3e3f8e49	0.18706621
150	0x3e1a56db	0.15072195
151	0xbdbacaa0	-0.09120679
152	0x3e0be551	0.13661696
153	0xbe180985	-0.14847381
154	0xbe2eed07	-0.17082606
155	0xbdb79de0	-0.08965659
156	0xbda99ec7	-0.082822375
157	0xbd1bd768	-0.038047224
158	0x3c63dc80	0.013907552
159	0xbe3e3240	-0.18573856
160	0x3e2dfa71	0.16990067
161	0x3e0b70c1	0.13617231
162	0x3ce464a8	0.027880028
163	0x3d635ab4	0.055506423
164	0xbdc2809d	-0.09497187
165	0x3e4c73f3	0.19966106
166	0xbe03fe52	-0.12889984
167	0xbd993b9c	-0.07482073
168	0xbdea030d	-0.11426363
169	0xbe107006	-0.14105234
170	0xbe25f830	-0.16207957
171	0x3caae030	0.020858854
172	0xbd6a3bd8	-0.057185978
173	0xbe3287e8	-0.17434657
174	0x3e4adb05	0.19810112
175	0xbd40b44c	-0.047046944
176	0x3e061651	0.1309445
177	0xbb8aee60	-0.0042398423
178	0x3d52bebc	0.05145143
179	0xbe170778	-0.14748943
180	0x3c492c50	0.012278631
181	0x3d33dec8	0.043913633
182	0xbe02f29c	-0.1278786
183	0xbdab2e2d	-0.08358417
184	0x3e173391	0.14765765
185	0x3d37e568	0.044896513
186	0x3dade19e	0.08490299
187	0x3c084b20	0.008318692
188	0x3d951c7a	0.07280822
189	0x3dfd7622	0.12376048
190	0xbe250a16	-0.16117129
191	0xbe2c28ad	-0.16812392
192	0x3dc198b2	0.094529524
193	0xbd7243b8	-0.059146613
194	0xbe481597	-0.19539486
195	0xbe498028	-0.19677794
196	0xbd5d2800	-0.053993225
197	0xbdaa9b9a	-0.0833046
198	0xbe2b2343	-0.1671267
199	0x3c1837d0	0.0092906505
200	0xbd96cfaa	-0.073638275
201	0xbe06e026	-0.13171443
202	0xbccb54f0	-0.024820775
203	0xbdfbf350	-0.123022676
204	0xbe3b50bd	-0.18292518
205	0xbdd5a1b3	-0.10431232
206	0xbceb1900	-0.028698444
207	0x3ddb3a12	0.107044354
208	0x3d9cdfa6	0.07659845
209	0xbd54a494	-0.051914766
210	0x3e3fc189	0.18726172
211	0x3e24b077	0.16082941
212	0x3e1db2d1	0.15400244
213	0x3e27e793	0.16396932
214	0x3dbf668a	0.0934573
215	0xbe2a72d2	-0.16645363
216	0x3ce0bfb0	0.027435154
217	0x3cfaebc0	0.030629992
218	0x3dd40ad6	0.10353629
219	0xbe067dfc	-0.13133997
220	0xbe13ecbe	-0.14445779
221	0x3dc20f36	0.094755575
222	0x3dede272	0.11615457
223	0x3e07da39	0.13266839
224	0x3de43eca	0.111447886
225	0xbc0b1cb0	-0.008490726
226	0xbdf6f910	-0.12059224
227	0x3e336049	0.17517199
228	0x3d77a3fc	0.060459122
229	0x3d73fabc	0.05956529
230	0x3e3f5721	0.18685581
231	0xbdf01dc7	-0.117244296
232	0x3bbba7a0	0.0057267696
233	0x3d196c0c	0.037456557
234	0xbe17ca3d	-0.14823242
235	0xbcb83f40	-0.022491097
236	0xbde8c2c7	-0.11365276
237	0xbd31716c	-0.04332106
238	0x3c439cb0	0.011939213
239	0xbdb69b13	-0.08916297
240	0x3da2f492	0.07956804
241	0xbd3a9908	-0.0455561
242	0xbe20f505	-0.15718468
243	0x3de73212	0.11288847
244	0xbe233815	-0.15939362
245	0xbca51f80	-0.020156622
246	0xbe3a872a	-0.18215623
247	0xbe397800	-0.18112183
248	0xbda2ce20	-0.079494715
249	0xbab29800	-0.0013625622
250	0xbde1d127	-0.11026221
251	0xbe26d36b	-0.16291587
252	0xbe3f363b	-0.18673031
253	0xbe3d1795	-0.18466027
254	0xbe150f18	-0.14556539
255	0xbe3759a7	-0.17905293

conv1.bias f4 [16]
0	0xbe2495ca	-0.16072765
1	0x3e16e4cf	0.14735721
2	0x3e2cfc0d	0.16893025
3	0x3e29b929	0.16574539
4	0xbe4558f0	-0.19272208
5	0x3dea71c2	0.11447479
6	0x3dc0af1e	0.09408401
7	0xbca53750	-0.020167977
8	0xbe04f4e0	-0.12984037
9	0x3dbcbd92	0.09215845
10	0x3e49b5bb	0.19698231
11	0xbd535d58	-0.05160269
12	0x3e14bfe1	0.14526321
13	0xbd5fc794	-0.054633692
14	0x3e041f65	0.12902601
15	0x3cb2d950	0.021832138

bn1.weight f4 [16]
0	0x3e921e30	0.28538656
1	0x3f79da0f	0.97598356
2	0x3f3c35a4	0.7351935
3	0x3f37689a	0.71643984
4	0x3f7e0e7e	0.99240863
5	0x3f74eb00	0.9567108
6	0x3e2b4bf0	0.16728187
7	0x3e8ec83e	0.27887148
8	0x3f790a7b	0.97281617
9	0x3e39dd6c	0.18150872
10	0x3d91bec0	0.07116461
11	0x3f4cb835	0.7996858
12	0x3f601635	0.87533885
13	0x3f6e7d52	0.93159974
14	0x3f7be1eb	0.983916
15	0x3ede0cce	0.43369144

bn1.bias f4 [16]
0	0x00000000	0.0
1	0x00000000	0.0
2	0x00000000	0.0
3	0x00000000	0.0
4	0x00000000	0.0
5	0x00000000	0.0
6	0x00000000	0.0
7	0x00000000	0.0
8	0x00000000	0.0
9	0x00000000	0.0
10	0x00000000	0.0
11	0x00000000	0.0
12	0x00000000	0.0
13	0x00000000	0.0
14	0x00000000	0.0
15	0x00000000	0.0

bn1.running_mean f4 [16]
0	0x00000000	0.0
1	0x00000000	0.0
2	0x00000000	0.0
3	0x00000000	0.0
4	0x00000000	0.0
5	0x00000000	0.0
6	0x00000000	0.0
7	0x00000000	0.0
8	0x00000000	0.0
9	0x00000000	0.0
10	0x00000000	0.0
11	0x00000000	0.0
12	0x00000000	0.0
13	0x00000000	0.0
14	0x00000000	0.0
15	0x00000000	0.0

bn1.running_var f4 [16]
0	0x3f800000	1.0
1	0x3f800000	1.0
2	0x3f800000	1.0
3	0x3f800000	1.0
4	0x3f800000	1.0
5	0x3f800000	1.0
6	0x3f800000	1.0
7	0x3f800000	1.0
8	0x3f800000	1.0
9	0x3f800000	1.0
10	0x3f800000	1.0
11	0x3f800000	1.0
12	0x3f800000	1.0
13	0x3f800000	1.0
14	0x3f800000	1.0
15	0x3f800000	1.0
