Network/target_net.ckpt (torch_old, 488339 bytes, 54 tensors)

conv1.weight f4 [16, 1, 5, 5]
000000 34 6c 09 c0 64 12 9c c0 1b 1a a8 40 36 79 f1 c0
       -2.1472292 -4.877245 5.2531867 -7.5460463
000010 b1 e8 d8 3f 79 21 50 c0 32 8a 83 41 7b b6 01 41
       1.6946012 -3.252043 16.442478 8.107051
000020 c9 1b c9 40 23 02 66 c1 41 78 ab 3e 5c 7c 81 c0
       6.2846417 -14.375522 0.33490184 -4.0464306
000030 fe 68 81 c1 fd 0f de 40 21 85 b0 40 4b dd 88 c0
       -16.176266 6.9394517 5.516251 -4.2770133
000040 d5 1c 2a 41 ec a0 cf 40 11 9a 80 40 5e 98 54 c0
       10.632039 6.488394 4.018807 -3.3217998
000050 a7 fc 08 41 6c 86 40 c0 54 5a a0 be 84 0c aa c1
       8.561683 -3.0082045 -0.31318915 -21.256111
000060 33 46 52 c1 f5 89 40 41 6d f3 c6 c0 89 22 8b c0
       -13.1421385 12.033681 -6.217215 -4.3479657
000070 c0 ab 2d 41 e7 5d 3f c1 f2 45 0c c1 19 62 6e 41
       10.854431 -11.960425 -8.7670765 14.89895
000080 96 fb c2 bf 04 9c 87 c1 d7 53 13 41 98 22 bb 40
       -1.5233028 -16.95118 9.207969 5.847973
000090 8e 84 3c c1 75 f2 f4 be aa 34 16 3f fc 8d b2 c0
       -11.782362 -0.4784123 0.5867411 -5.579832
0000a0 58 4f b8 3f c0 05 db 40 14 fa 94 c1 20 a2 08 41
       1.4399214 6.844452 -18.622108 8.539581
0000b0 80 f9 4d 40 ea 86 65 bf 56 c0 7b c0 dd 79 46 bf
       3.2183533 -0.8965899 -3.9336143 -0.775297
0000c0 2b d8 5b c1 20 43 6f 40 89 60 a2 41 c1 d9 14 41
       -13.740275 3.738472 20.297136 9.303163
0000d0 d0 a7 0d c0 3c 04 70 c0 10 c0 91 3f 08 bc 46 c1
       -2.2133675 -3.7502584 1.1386738 -12.420906
0000e0 23 e2 71 40 4b dd ac c1 97 10 14 c0 b5 a3 e7 40
       3.7794273 -21.608053 -2.3135126 7.238734
0000f0 b3 57 9d bf 37 87 19 c1 b7 ea 2a 41 af 70 be c0
       -1.2292389 -9.595511 10.682303 -5.9512553
000100 85 e7 1c 40 79 ec 98 41 f2 fd 08 bf 85 91 ea 3e
       2.4516308 19.115465 -0.5351249 0.45814148
000110 5c e7 b0 c0 ac 4f 33 41 41 62 e2 c0 aa 28 40 c1
       -5.528242 11.206951 -7.074494 -12.009928
000120 4f 07 50 40 4e 29 27 bf 95 74 33 c1 3f b9 f7 40
       3.250446 -0.652974 -11.215962 7.741363
000130 1b cd d3 c0 08 ae de 3f 2d 35 84 bf 68 f5 b3 bf
       -6.6187873 1.739686 -1.0328728 -1.4059267
000140 f2 84 e2 c0 4e eb 61 c1 f7 21 94 c0 19 65 ea c0
       -7.0787287 -14.119947 -4.629146 -7.324841
000150 9a c9 83 c0 c9 88 6d c1 2d 21 c0 40 b2 b2 20 c1
       -4.1183596 -14.845895 6.00405 -10.043627
000160 e1 42 ce 40 eb cc 00 40 fe f2 e4 40 a7 b0 d7 c0
       6.445664 2.0125072 7.154662 -6.740314
000170 06 a4 26 41 a8 d8 d1 40 15 40 70 c1 cf 15 c4 40
       10.415045 6.5576973 -15.015645 6.127662
000180 19 ec a2 40 d3 5c e8 3e ce 54 51 c1 32 14 b4 41
       5.0913205 0.4538332 -13.083204 22.509861
000190 d4 6e 07 c1 0e 52 84 41 65 66 3f 40 63 61 05 c1
       -8.464558 16.540066 2.9906247 -8.336276
0001a0 c4 48 07 3f 7e 75 05 c1 2b 65 fc c0 06 59 51 41
       0.52845407 -8.341185 -7.8873496 13.084234
0001b0 21 bd 9b c1 b1 32 7f 41 f9 a9 e3 40 38 7a 66 40
       -19.467348 15.949876 7.1144986 3.6012096
0001c0 14 c3 ba bf 16 73 78 41 27 a8 14 c1 f7 07 d5 40
       -1.4590783 15.528097 -9.291053 6.6572223
0001d0 74 1d 20 c1 ab 0c e3 3f 82 d5 99 c0 5b a1 62 c0
       -10.007191 1.7738241 -4.807313 -3.5410984
0001e0 e2 65 82 c0 9d ee a0 bf 1f f0 b2 c0 6d 19 db 40
       -4.074937 -1.2572819 -5.5918117 6.8468537
0001f0 f1 f7 8a c0 ae b9 4d c1 ce 9f d2 c0 0c 42 c2 bf
       -4.3427663 -12.857832 -6.5820074 -1.5176406
000200 6b 10 a1 c0 40 c0 a5 c1 3b 66 de 40 21 3c b3 c0
       -5.033254 -20.718872 6.9499793 -5.60109
000210 ab f6 95 3f 18 42 e8 40 0b 76 61 c1 ec f4 22 c0
       1.1715902 7.258068 -14.091319 -2.5461988
000220 51 ea 76 40 0b 68 58 c0 d3 4d a9 c0 9a 42 34 41
       3.8580515 -3.3813503 -5.29075 11.26626
000230 ed 39 57 c1 d7 84 3f 41 cf 8f 35 41 ad 66 95 40
       -13.451642 11.969932 11.3476095 4.6687837
000240 16 24 57 41 fb e2 77 c0 6b e0 f6 40 5d ad ab 40
       13.44631 -3.8732288 7.714895 5.3649125
000250 0a b6 11 40 5c 56 df 3e fd 92 f7 40 73 ad 4b c1
       2.2767358 0.43620574 7.736693 -12.729846
000260 df 3c 10 c1 79 04 87 41 7d 7a 27 41 3d da 31 c1
       -9.014861 16.877184 10.467404 -11.115781
000270 72 07 1a c0 65 62 3a c0 23 93 f7 be c1 e8 8f 41
       -2.4067044 -2.9122555 -0.48354444 17.98865
000280 31 0a 8e c0 15 24 67 40 2e b6 84 c0 65 ab 4a c1
       -4.438744 3.6115773 -4.1472387 -12.666844
000290 9d 8d 1a 41 ae aa fc 40 e3 d9 24 c0 c4 71 63 be
       9.659574 7.895835 -2.5757987 -0.22211367
0002a0 a9 37 3f c0 11 a5 9b 41 17 3f fd bf 38 a9 96 40
       -2.9877722 19.455599 -1.9784878 4.7081566
0002b0 d8 c0 97 40 16 57 e0 40 16 cc cc 40 b7 1f f8 bf
       4.7422905 7.0106306 6.399913 -1.9384679
0002c0 c1 c9 b9 3d b3 10 92 bf cc a0 e9 3f 6d 27 23 41
       0.09071685 -1.1411346 1.8252196 10.197125
0002d0 40 1e 18 bf 7e 4a e2 c0 ac 20 0d c0 26 10 af 41
       -0.5942116 -7.0715933 -2.2051191 21.882885
0002e0 09 31 a8 3f a4 1c 8c bf f9 fb b5 41 86 37 c4 c0
       1.3139964 -1.094624 22.748034 -6.131778
0002f0 50 fd 55 c1 a2 1c 0c 41 aa 79 2a 3f ae 9b 98 c0
       -13.374344 8.75699 0.66591895 -4.769004
000300 8a 7f 8c c0 6a ad 46 41 53 cd 38 c1 bb 90 53 3e
       -4.3905687 12.417337 -11.550128 0.20660679
000310 28 b8 85 c1 2c a9 45 c0 89 97 1c 41 76 c4 7d 40
       -16.71492 -3.0884504 9.786996 3.965116
000320 f4 2e 8c 40 8e ea 1c 41 6d 7b ee 3f ad 48 dd c0
       4.3807316 9.807264 1.8631417 -6.9151216
000330 bb 65 83 41 ca 4b 47 c0 b3 b0 57 3f 76 9f 3c 40
       16.424673 -3.1140008 0.84253997 2.9472327
000340 90 ea bd c0 fc 1d 52 c1 04 86 3f c0 fd 59 39 41
       -5.934883 -13.13232 -2.9925547 11.58447
000350 0e 56 2c 41 63 1c 0b 41 a0 ff 59 41 3f 9b 3f 40
       10.771009 8.69443 13.624908 2.9938505
000360 d6 de ca c0 a7 74 43 c1 f4 f6 1d c1 98 97 4f c1
       -6.3397017 -12.21598 -9.872791 -12.97451
000370 3d d9 8e c0 a7 07 0a c1 53 3f 41 c0 29 59 1e 41
       -4.4640183 -8.626868 -3.01949 9.896768
000380 c0 9e 99 c0 27 8f 60 c0 b2 f0 0e 41 13 2c fd 40
       -4.8006287 -3.5087373 8.9337635 7.91163
000390 89 2d c6 c0 54 7b 61 c0 93 52 71 41 5d d6 70 41
       -6.1930585 -3.5231524 15.08266 15.052335
0003a0 ba 21 21 40 44 16 04 c1 31 2e 9e bf 99 9a ff 40
       2.5176835 -8.255436 -1.2357846 7.987622
0003b0 60 d9 94 c1 83 06 4c 40 c0 12 6a 40 4f 2b f9 3e
       -18.60614 3.1878974 3.6573944 0.48665854
0003c0 ed 1f 8a bf 95 46 d5 40 7d a5 f8 bf 1b 91 5e bf
       -1.0790993 6.664866 -1.9425503 -0.86940163
0003d0 34 4d 95 c1 25 ce 15 bf c1 10 c0 40 7d 8f f5 bf
       -18.662697 -0.58517677 6.002045 -1.9184414
0003e0 de 7b 62 be b8 60 b5 c1 52 87 19 c1 5f 1a 45 40
       -0.22117564 -22.672226 -9.595537 3.0797346
0003f0 70 27 4a 41 68 73 e6 40 80 16 9b c1 25 08 7e 41
       12.634628 7.2015877 -19.385986 15.876988

conv1.bias f4 [16]
000000 72 50 26 c0 d8 8e 3c 40 a5 83 41 c0 7c eb 3e 41
       -2.59866 2.9462185 -3.02366 11.932491
000010 6e 70 c0 bf bf 85 f6 40 b0 4e 52 40 46 42 80 41
       -1.5034311 7.7038264 3.2860527 16.03236
000020 12 41 61 40 e3 24 13 3f 96 72 02 c0 2b 12 e8 3f
       3.5195966 0.5747816 -2.0382438 1.8130544
000030 51 07 4d bf db df 06 41 29 95 5a 41 3f 15 12 c1
       -0.8008929 8.429652 13.661416 -9.130187

bn1.weight f4 [16]
000000 c3 fb 71 41 b9 02 60 41 96 b0 94 41 f5 71 7a 41
       15.123965 14.000665 18.586224 15.652822
000010 3c 4f 84 41 bb 26 af 41 0e f5 7c 41 33 9a ad 41
       16.538689 21.893911 15.809828 21.700293
000020 a4 a8 96 41 20 81 8e 41 90 e9 81 41 82 04 8d 41
       18.832344 17.81305 16.239044 17.627201
000030 b6 64 56 41 ae 2b 75 41 1c b6 90 41 e1 2d 3e 41
       13.399588 15.323164 18.08892 11.886201

bn1.bias f4 [16]
000000 ca 46 9a 3e 04 14 9b 40 71 b3 c9 3f 75 88 72 40
       0.30132133 4.8461933 1.5757886 3.7895787
000010 d7 10 53 3f ee 15 94 3e 31 83 9a 3f f9 4d 0c 3f
       0.8244757 0.2892298 1.2071286 0.54806477
000020 84 ab 2c 3f 40 f7 79 3e 6c cd 20 40 d6 7c de 3e
       0.6744921 0.24410725 2.512538 0.43454617
000030 7d b5 a8 3f 4f 2b 07 40 20 20 6b 3f 92 a9 ea 40
       1.3180386 2.1120183 0.91845894 7.3331995

bn1.running_mean f4 [16]
000000 3a d7 25 c0 6f 5e 3c 40 d6 04 42 c0 46 aa 3e 41
       -2.5912614 2.9432638 -3.0315452 11.916571
000010 3b 13 c3 bf 01 c7 f6 40 ee d1 51 40 7c 5d 80 41
       -1.5240244 7.7117925 3.278438 16.045647
000020 4e 69 61 40 70 86 16 3f df b0 03 c0 a1 34 e9 3f
       3.5220523 0.58798885 -2.0576704 1.8219186
000030 34 58 4a bf 6e fe 06 41 17 73 5a 41 82 45 12 c1
       -0.7904084 8.437117 13.653098 -9.14197

bn1.running_var f4 [16]
000000 50 92 28 41 7d 65 1d 41 7e 3b 3a 41 d9 06 20 41
       10.535721 9.837277 11.639524 10.001672
000010 56 1e 20 41 c0 37 36 41 d2 fb 67 41 0b 51 4c 41
       10.007406 11.388611 14.49898 12.769786
000020 78 48 0b 41 56 24 5a 41 f3 2e 21 41 af 3d 34 41
       8.705193 13.633871 10.073962 11.265059
000030 0b f1 41 41 f4 7f 4f 41 d4 a7 32 41 50 bb 35 41
       12.121348 12.968739 11.165974 11.358231

conv2.weight f4 [32, 16, 5, 5]
000000 df 4e 80 c1 48 6d 11 41 b3 93 ab c1 b4 1d 70 41
       -16.038511 9.08918 -21.447119 15.007252
000010 c8 b4 40 c0 4d 5e a5 40 86 24 66 c1 1a ec 70 c1
       -3.011034 5.1677613 -14.383917 -15.057642
000020 12 78 74 41 47 45 92 40 da 28 69 c0 a1 09 38 c1
       15.279314 4.5709567 -3.6431184 -11.502351
000030 55 eb 1d c1 4f 32 e2 c0 1e c4 82 c0 9b d4 4b c1
       -9.869954 -7.068641 -4.08644 -12.739406
000040 a8 80 85 c1 10 17 87 c1 50 d7 e1 c0 49 b1 8c 41
       -16.68782 -16.886261 -7.0575333 17.586565
000050 24 84 1d c1 43 d7 11 c1 78 56 4c c1 b8 56 8a 40
       -9.844761 -9.115054 -12.771111 4.323086
000060 37 78 47 40 b5 56 3f 3c 72 54 f5 c0 9a 57 ed 40
       3.1167123 0.011678387 -7.6665583 7.4169436
000070 3d 36 3a c1 01 4d 83 40 6b a8 4d 3d 29 1c 0a c0
       -11.638242 4.10315 0.050209444 -2.1579688
000080 88 99 c7 40 d1 7b 70 c1 75 b1 08 3f 64 99 6e 41
       6.2374916 -15.030229 0.5339578 14.912449
000090 5e 8e 78 bf e4 fe b5 c1 52 4c cb bf dc a8 88 40
       -0.97092235 -22.749458 -1.5882666 4.2706127
0000a0 8c 85 e8 40 eb bb 75 c1 18 ea 13 c1 ff 4e 20 40
       7.266302 -15.358378 -9.244652 2.5048215
0000b0 06 bf 1a 40 0c 11 4a c1 f4 a6 8e c1 d2 30 d4 c0
       2.4179091 -12.629162 -17.83152 -6.6309595
0000c0 b2 97 96 40 3a 04 c2 bf 5b 43 9f c0 85 73 b0 be
       4.7060175 -1.515754 -4.976972 -0.34463134
0000d0 8a 43 bf 40 1c ba a5 c0 ea 08 90 40 2b b8 c6 40
       5.9769945 -5.1789684 4.501088 6.2099814
0000e0 18 65 bd bc 76 db a6 40 85 ed 32 c1 1e 7e 1d 3f
       -0.023119494 5.2142897 -11.182988 0.61520565
0000f0 7c 25 07 41 ac 0a ff 40 b2 2b 3e 41 45 17 1e c1
       8.446651 7.9700527 11.885668 -9.880681
000100 b2 47 9e bf 04 7e 80 40 72 4c 3a c1 33 b2 5e bf
       -1.236563 4.015383 -11.643663 -0.8699066
000110 ea 77 c8 40 c1 e2 be c0 13 a0 25 c0 4c 13 9f c1
       6.264638 -5.96518 -2.5878952 -19.884422
000120 33 27 b1 c0 65 68 9e 40 69 78 a7 c1 37 a6 66 40
       -5.536035 4.9502435 -20.933794 3.603895
000130 3a b0 88 c1 a2 3f 8d 41 61 f8 96 40 56 c7 76 40
       -17.086048 17.65607 4.7178197 3.8559165
000140 ca 5e 9f 40 54 74 c4 3f b4 17 8f be d6 06 0a c1
       4.980321 1.5348 -0.27947772 -8.626669
000150 7b b2 c7 bf 8d ff 2c c0 a7 15 8b c0 a6 72 03 3f
       -1.5601343 -2.7030976 -4.346393 0.51346815
000160 18 0a f1 40 37 02 2c c1 92 ed 7e c0 4c 1a 3d c0
       7.532482 -10.750541 -3.9832501 -2.95473
000170 69 fd 69 41 56 3f e1 c0 08 75 d9 40 b2 4b b4 c1
       14.624368 -7.0389814 6.795536 -22.53696
000180 18 65 49 c1 93 df 07 3f 5e 6d 66 c0 74 cc 12 c1
       -12.587181 0.5307552 -3.6004252 -9.174915
000190 9c 80 1b c1 56 44 66 c0 d7 2c b5 3c 13 7c ce c0
       -9.718899 -3.597921 0.022116108 -6.452646
0001a0 9f 55 02 41 fd e0 7d 40 4e db ad c1 25 8a 5b 40
       8.145904 3.9668572 -21.732082 3.4303067
0001b0 88 c8 96 40 d6 0e e4 40 cc 25 79 c0 e5 d6 d8 c0
       4.711979 7.126811 -3.892932 -6.7762322
0001c0 0e a1 2b 40 9b 44 2a c1 61 aa de 3e a1 1f 4b c0
       2.681705 -10.641749 0.43489364 -3.1738055
0001d0 65 f5 c3 c0 b1 67 9f c0 d9 04 ea 3d 5d 1a ea bf
       -6.1237054 -4.9814076 0.11426706 -1.8289295
0001e0 59 d8 e2 3f 0c 73 e6 be 1c 47 47 3f f2 d6 3f 41
       1.7722274 -0.4500965 0.7784288 11.989977
0001f0 6d d5 1e c0 fa 00 b1 c1 1f 54 bc c0 b0 f6 a9 40
       -2.4817765 -22.125477 -5.8852687 5.311363
000200 fd 2a 6b 41 76 db 8b be 4a 32 8e 3f 39 2b 05 41
       14.697995 -0.27315873 1.1109097 8.323052
000210 68 1c 19 41 ec 52 22 3f 9a bd 20 41 ad 80 30 c1
       9.569435 0.6340778 10.046289 -11.031415
000220 e9 f7 2f c0 92 1b ce bf 6c 43 7e bf ed 49 87 c1
       -2.7495062 -1.6102164 -0.9932163 -16.911097
000230 c1 b8 ec c0 c7 83 45 c0 4a 66 bf c0 1b 44 e7 3e
       -7.397553 -3.086168 -5.9812365 0.45169148
000240 80 f8 db bf 17 97 07 c0 99 1e 0f c1 f4 8e 99 40
       -1.7185211 -2.1185968 -8.94497 4.7987003
000250 f5 48 20 c1 a7 00 54 41 be fd bc 40 03 2d ca 40
       -10.017812 13.250159 5.9059744 6.3179946
000260 a2 8f 1b 41 6e bf eb bf 6e bc 6d 41 41 2a 73 c1
       9.722567 -1.8417795 14.858503 -15.197816
000270 39 b0 13 3f c6 d7 bd bc 95 68 b2 c1 46 81 e4 40
       0.5769077 -0.023174178 -22.301065 7.1407804
000280 3a ab 58 3e a4 24 cf 40 92 e0 1c 41 d8 f9 fc 40
       0.21159068 6.4732227 9.804827 7.9054985
000290 7d 2b 16 41 1f 77 b7 3e 62 0d de be 77 12 02 41
       9.385617 0.3583307 -0.43369585 8.129508
0002a0 93 d0 1e c0 c0 1c a8 c0 83 b5 85 c1 b6 0e 90 c1
       -2.4814804 -5.2535095 -16.713629 -18.007183
0002b0 0d 04 a0 40 68 f0 12 c1 61 db 57 3f af 23 18 c0
       5.0004945 -9.183693 0.8431912 -2.377178
0002c0 79 ac 0c c1 43 50 fc c0 d2 84 05 c1 a3 7b 30 41
       -8.792108 -7.8847976 -8.344927 11.030185
0002d0 e6 8e cf c0 7a eb 1a 41 d4 ba b8 3f 86 0b 5b c0
       -6.4861937 9.682489 1.4432015 -3.4225783
0002e0 c1 ba c4 40 c4 ed 29 c1 13 ca 3a 3f 34 91 f3 3f
       6.147797 -10.620548 0.7296459 1.9028687
0002f0 f4 33 2f 41 b6 c7 c4 40 f0 40 33 c1 c7 86 f7 c0
       10.950184 6.149379 -11.203354 -7.7352023
000300 2b e2 b8 c0 9a e5 ee 40 77 ae 2d 41 00 39 38 40
       -5.7776084 7.4655275 10.855094 2.878479
000310 50 cd bf bf 36 92 08 c1 73 08 6f c1 51 03 33 c1
       -1.4984531 -8.535696 -14.939563 -11.18831
000320 e8 cd 8f c1 fb b1 cc 3e 71 73 d6 40 99 26 14 c1
       -17.97554 0.39979538 6.701592 -9.259423
000330 27 fa 02 41 79 6f cb c0 03 1c 3e 3d bb 7d fe be
       8.186072 -6.3573575 0.046413433 -0.497053
000340 27 99 90 c0 33 33 0b 41 2f 2f 9f c0 72 3b 25 41
       -4.5186954 8.7 -4.9745097 10.327013
000350 c1 71 e7 40 bb 1d 86 c0 31 e2 fb c0 01 fc 53 c1
       7.232636 -4.191129 -7.8713613 -13.249024
000360 6e 72 08 40 f0 9b ed 40 88 99 a9 c1 b4 42 78 c1
       2.1319842 7.4252853 -21.199966 -15.516285
000370 83 ca 2d 41 bb 31 ad 40 e7 1d 11 41 0c 0d 63 41
       10.861941 5.4123206 9.0698 14.190685
000380 d6 52 9c 40 61 0c 6a c1 3d ad 2c c0 0d 34 1e 41
       4.885112 -14.628022 -2.6980736 9.887708
000390 e0 9b 9e 41 5b e3 0c 41 f8 9e 86 3f f2 88 49 c0
       19.82611 8.805507 1.0517263 -3.1489835
0003a0 c5 44 bf 41 f3 4c 10 c0 27 b6 55 41 7a 7a 04 c0
       23.908579 -2.2546966 13.356971 -2.0699754
0003b0 cd 61 fc 40 9f f3 e4 3d 2a 0b 55 c0 b1 9f ca c0
       7.8869386 0.111792795 -3.3288064 -6.3319936
0003c0 2d 20 3c c0 36 b1 60 3f 0a 4a a0 c0 99 8d 9c c0
       -2.9394639 0.877704 -5.009038 -4.892285
0003d0 2a 64 36 41 d6 64 98 40 f6 67 04 41 e3 d6 18 40
       11.399454 4.762309 8.275381 2.3881156
0003e0 fc 1f 12 40 72 18 45 c1 c7 54 8c c0 0e e6 09 c1
       2.2832022 -12.318468 -4.385349 -8.618666
0003f0 fb 4d de 3f 12 1d 0a 3f 16 5b 0c 41 21 c8 fc c0
       1.7367548 0.5395061 8.772238 -7.89943

conv2.bias f4 [32]
000000 a9 80 38 bd 1a ef 52 3d f2 03 0d bd ea eb da 3c
       -0.045044575 0.051497556 -0.03442759 0.02672382
000010 e8 63 2d 3b 60 50 a9 bc 3c f1 da bd b3 71 82 bd
       0.0026457254 -0.020668209 -0.10690543 -0.06369343
000020 a2 50 87 3d 44 65 ba 3c 49 20 dc 3d 7c 1c 7c 3b
       0.06607176 0.022753365 0.107483454 0.0038469126
000030 26 15 84 bd 3f bc 99 bc f0 2e 1a bd ac e8 6e bd
       -0.06449346 -0.01876652 -0.03764242 -0.058327362
000040 3c 27 7f 3b 97 90 80 3c b1 58 7e bb c7 27 23 bb
       0.0038933298 0.015693946 -0.0038810188 -0.0024895535
000050 5a d1 94 ba 70 52 e4 bb e9 6f 91 bd a4 71 42 3e
       -0.0011353896 -0.006967835 -0.07101423 0.18988663
000060 fa 68 18 3e 03 6f 43 3d ac 36 d2 3c 52 e0 8b 3e
       0.14883795 0.04771329 0.025660835 0.2731958
000070 64 3c c7 3b 0e 4e 7d bd f5 ac ce bb fb 39 72 be
       0.006080197 -0.061842017 -0.006307239 -0.2365493

bn2.weight f4 [32]
000000 f8 bc dc 40 85 88 0a 41 43 54 91 40 34 e9 0c 41
       6.8980675 8.65833 4.541536 8.806934
000010 51 4e f2 40 11 bd c5 40 29 d7 2f 41 89 fe 33 41
       7.57206 6.1793294 10.990029 11.249642
000020 de fa 24 41 18 61 bd 40 29 9f ae 40 b9 63 24 41
       10.311247 5.9181023 5.4569287 10.274346
000030 9e e4 01 41 c1 8e d3 40 cf fc 5c 40 90 a0 ba 40
       8.118315 6.611176 3.4529302 5.8321
000040 e9 d7 38 41 c2 f8 ef 40 99 82 e2 40 bf 24 98 40
       11.552712 7.499116 7.078442 4.7544856
000050 43 e0 f0 3d c2 92 80 40 03 51 0f 3c 97 ff f8 40
       0.117615245 4.017915 0.008747342 7.7812
000060 27 8a 29 41 63 b7 11 41 ff 11 eb 40 c4 bd d9 40
       10.596229 9.107272 7.345947 6.8044147
000070 d4 d7 bb 40 98 62 1c 41 29 e1 73 40 fe 63 16 41
       5.870096 9.774071 3.8106177 9.399412

bn2.bias f4 [32]
000000 fd fd 84 c1 59 a1 4e c1 ff 12 39 c1 07 f7 51 c1
       -16.624018 -12.9143915 -11.567138 -13.122809
000010 ba 7a 9e c1 84 27 6b c1 d6 d8 72 c1 c6 53 70 c1
       -19.809925 -14.697147 -15.177938 -15.0204525
000020 f0 38 5b c1 83 8c 87 c1 e3 78 db c0 2a 00 ac c1
       -13.701401 -16.94361 -6.8585067 -21.50008
000030 c8 1c 83 c1 17 5d 98 c1 b4 87 5e c1 90 73 55 c1
       -16.389053 -19.045454 -13.908131 -13.3407135
000040 26 47 7e c1 16 c2 5b c1 9e 8f 7e c1 df 62 85 c1
       -15.89237 -13.734884 -15.910063 -16.673277
000050 e6 8b e1 be e9 51 7c c0 d1 d2 06 be bb fe 87 c1
       -0.44052047 -3.9424994 -0.13166358 -16.99938
000060 96 51 52 c1 36 f8 4a c1 75 f8 6c c1 70 3c b0 c1
       -13.144918 -12.685598 -14.810658 -22.02951
000070 83 ec 7a c1 ae 5c 8a c1 1c d5 99 c1 de 66 4f c1
       -15.682742 -17.295254 -19.229057 -12.962614

bn2.running_mean f4 [32]
000000 b1 c6 67 c5 1d f7 94 c5 fc 3b bd c5 25 7d a6 c5
       -3708.4182 -4766.889 -6055.498 -5327.643
000010 3b a5 80 c5 b4 98 88 c5 b4 72 d9 c5 04 c5 db c5
       -4116.654 -4371.088 -6958.338 -7032.627
000020 94 6b e3 c5 55 68 4e c5 e8 cb f2 c5 bb a9 99 c5
       -7277.4473 -3302.5208 -7769.4883 -4917.2163
000030 07 ae 93 c5 a7 ad 86 c5 c2 11 b3 c5 8f 74 85 c5
       -4725.7534 -4309.7065 -5730.2197 -4270.57
000040 b6 cb ef c5 9a 80 84 c5 3c 6b 9e c5 af 38 34 c5
       -7673.464 -4240.075 -5069.4043 -2883.5427
000050 94 44 00 c4 4b af f0 c5 13 36 85 c3 bb 25 18 c5
       -513.07153 -7701.9116 -266.42245 -2434.3582
000060 7f 1f c9 c5 ad 71 a3 c5 9a 6f 83 c5 c3 24 5c c5
       -6435.937 -5230.2095 -4205.95 -3522.2976
000070 6f 5e 41 c5 5f 20 96 c5 c8 cf 8c c5 ba 88 c8 c5
       -3093.902 -4804.0464 -4505.9727 -6417.091

bn2.running_var f4 [32]
000000 69 c3 08 4b 24 eb 0b 4b 7b c3 56 4c 5c 24 0d 4b
       8.962921e+06 9.1697e+06 5.6298988e+07 9.249884e+06
000010 36 4b e7 4a db 20 cc 4a 8c 7b 06 4b 5b ec 1b 4b
       7.579035e+06 6.6888775e+06 8.813452e+06 1.0218587e+07
000020 da 77 09 4b 9b 07 e6 4a 5c 4a 90 4b 41 83 09 4b
       9.009114e+06 7.5376135e+06 1.891244e+07 9.012033e+06
000030 c3 f4 0f 4b 0e f6 bd 4a ad bc e8 4a b7 1e 2e 4b
       9.434307e+06 6.224647e+06 7.6263265e+06 1.1411127e+07
000040 c6 8f 1c 4b fc c2 dd 4a 39 4c 0e 4b 73 87 98 4a
       1.0260422e+07 7.266686e+06 9.325625e+06 4.9980735e+06
000050 ab 80 e0 46 f8 77 de 4a 42 0b 8c 46 7a 49 dd 4a
       28736.334 7.289852e+06 17925.629 7.251133e+06
000060 5f 48 81 4b ef c3 0f 4b 84 83 d4 4a ab 1d b6 4a
       1.6945342e+07 9.421807e+06 6.96365e+06 5.9675735e+06
000070 8e 07 37 4b 50 56 e2 4a a0 e8 c0 4a c0 36 4b 4b
       1.1995022e+07 7.416616e+06 6.321232e+06 1.3317824e+07

conv3.weight f4 [32, 32, 5, 5]
000000 33 b8 04 3e e4 35 2c be 65 f3 3f 3e d3 81 9b 3d
       0.12960891 -0.16817433 0.18745191 0.075931214
000010 79 ce d9 bc 63 7c cc 3d 1c f3 05 3d 04 09 35 bd
       -0.026587712 0.099846624 0.03270255 -0.04419805
000020 08 16 5e 3c be c4 c3 bd d6 c7 02 3e d4 69 99 be
       0.013555057 -0.0955901 0.12771544 -0.29963553
000030 52 ad ba 3d e0 14 88 3e 91 c1 48 be 1b 13 0e 3d
       0.091150895 0.26578426 -0.1960509 0.03468619
000040 64 93 1d bd f6 b7 93 3c f7 83 14 3b 58 56 0d bd
       -0.03847064 0.018032055 0.0022661665 -0.034506172
000050 0d 41 a3 3d 76 80 87 3d fb 29 71 3e 02 a2 3e 3e
       0.07971392 0.06616299 0.2355117 0.18616489
000060 9c 98 ce 3d 0a 24 aa be da 68 b2 be a3 a3 a1 be
       0.10087702 -0.3323062 -0.3484562 -0.31570157
000070 da 4e b3 be 8a c0 96 be d8 1a 70 be bd 89 fc bd
       -0.35021096 -0.2944377 -0.2344774 -0.12330959
000080 8d 7c 29 be 0a df aa be ba 25 8c bd 02 4d 53 be
       -0.16551419 -0.3337329 -0.06843133 -0.20634845
000090 1d d4 05 be a1 27 13 be 05 a7 bb be dc 55 7e bd
       -0.13069196 -0.14370586 -0.36650863 -0.0620936
0000a0 7c df 36 be 2c 18 3b be 52 55 98 be 45 73 38 be
       -0.1785869 -0.1827094 -0.29752594 -0.18012722
0000b0 f7 3a b0 be 73 2b 83 be 39 9c 0f be 2a 7e 9d be
       -0.34419987 -0.25619087 -0.14024438 -0.30760318
0000c0 60 b8 3a be f5 a5 31 bd 70 8a ab 3d e7 50 05 3e
       -0.18234396 -0.04337116 0.08376014 0.13019143
0000d0 54 f5 4c 3e 05 42 84 bd 8e 40 3c bd 92 4b d5 3d
       0.2001546 -0.06457905 -0.04596 0.104148045
0000e0 59 16 fa bc 04 4f 47 bd bb b6 13 bd 7e a7 37 3d
       -0.030528234 -0.04865934 -0.036062937 0.044837467
0000f0 db bd 74 3d e3 d1 f9 3d 0a 36 40 3e b9 cc 8a 3e
       0.059751373 0.12198236 0.18770614 0.27109316
000100 4b ab 4d 3e 7e ab e7 3d 21 8c 07 bd 89 72 b4 3d
       0.20084874 0.113120064 -0.03309262 0.08810908
000110 d6 5a e4 3d 9e b5 65 3e c0 1d 9c 3d 77 23 97 bd
       0.11150138 0.22432563 0.07622862 -0.07379811
000120 9b 49 53 3e 32 41 ed 3c b4 ed 29 3e d3 b9 27 be
       0.20633547 0.028961752 0.16594583 -0.1637948
000130 1a fb 90 be 43 2a 3c be 0f 15 a4 be ef af 90 bd
       -0.28316575 -0.18375497 -0.32047316 -0.07064807
000140 0b eb 9a be b7 a2 a5 be a0 93 2a be b7 16 01 be
       -0.3025745 -0.32350704 -0.16657877 -0.12606321
000150 71 fa b6 3c 65 75 f9 bd ed e5 a9 be de c6 b8 be
       0.022336217 -0.12180594 -0.33183232 -0.36089224
000160 bd d2 eb bd b2 18 1b be 90 ff a7 be d6 92 26 be
       -0.115148045 -0.1514614 -0.32812166 -0.16266951
000170 e2 a1 04 be ed 6a 1d be 48 a6 66 be 2a 93 1a be
       -0.12952378 -0.1537282 -0.22524369 -0.15095201
000180 3d b5 9e be 86 bf 03 be 90 24 ae be 93 80 58 be
       -0.3099765 -0.12866029 -0.3401227 -0.21142797
000190 97 2e 3c be 3b 1d 3e be 2f 9c 5c 3e 37 4f 67 3c
       -0.18377148 -0.18565838 0.21543954 0.014118007
0001a0 ca ef 8c 3d c3 34 e0 bd 11 d9 b5 bd cb 7c 82 3e
       0.06881674 -0.109475635 -0.08879293 0.25485834
0001b0 b8 71 cb bb 85 16 f7 3d 07 68 9c 3e 89 75 04 3e
       -0.0062086247 0.12064842 0.30548117 0.12935461
0001c0 fc 32 ba 3e da 8e 44 3e 1f 7f ba 3c 23 bd 58 3e
       0.36367023 0.19195119 0.022765694 0.211659
0001d0 a3 93 38 be bd 2a 58 3e cf ca a7 bc 14 5f 46 3d
       -0.18025069 0.21110053 -0.020482449 0.048430517
0001e0 a6 a6 ab bc f9 9a 2c 3e 06 b3 3c be 40 a8 e6 3c
       -0.020953488 0.16855992 -0.18427667 0.0281564
0001f0 bc 5b 4b 3e 53 7b b3 bd b6 75 1b bc 1b 94 ed 3d
       0.19859213 -0.087637566 -0.009488514 0.116005145
000200 05 56 90 bc d4 22 d3 bd 4f f2 38 bd c3 e6 da bd
       -0.017619142 -0.10309377 -0.04515296 -0.106885456
000210 64 a8 d6 3d ec b8 4a bc f9 b5 15 be 13 4a 98 3b
       0.10481337 -0.01237319 -0.14620198 0.004647502
000220 bf bc 2c 3e 91 1b 88 3e 08 17 71 3d dd 3e 18 3e
       0.16868876 0.26583531 0.058859855 0.1486773
000230 4b d0 1b be 4f 1c 0f be f6 c2 83 3a d6 80 51 3e
       -0.15216176 -0.13975643 0.001005261 0.20459303
000240 fa a4 19 be fe 6f a4 bc 0f cc 89 bd c4 40 64 3c
       -0.1500434 -0.020072933 -0.06728374 0.013931457
000250 03 df 7d 3d 9f c2 af bc 96 49 fa bd 57 ca 95 be
       0.06198026 -0.021455107 -0.12221067 -0.29255936
000260 c0 31 b2 be 71 ed ce bd 33 ab 4b be ef 3b bb be
       -0.3480358 -0.10103882 -0.19889526 -0.36569163
000270 f6 74 8e be 3e 84 00 be 15 f1 5b be d5 b3 7c be
       -0.2782361 -0.12550446 -0.21478684 -0.24677975
000280 13 b9 ba be b0 86 1c be f6 07 03 be 1f 56 11 be
       -0.36469325 -0.15285754 -0.12796006 -0.14193009
000290 ae 4e 92 be eb c2 1f be 2e 64 9f be 24 16 1d be
       -0.28575653 -0.15601699 -0.3113112 -0.15340477
0002a0 fb 24 10 be 4b 85 79 bd 4c 0c bd be f8 b1 c4 bd
       -0.14076607 -0.060918134 -0.36923444 -0.09604257
0002b0 89 13 f7 bd 95 11 51 be 7e 9c 7d bd dd 53 76 be
       -0.12064273 -0.20416863 -0.06191682 -0.24055429
0002c0 28 8d 2f be 14 38 1b be 80 18 8a be b6 97 0e be
       -0.1714369 -0.15158111 -0.26971817 -0.1392506
0002d0 7d 34 91 bd ce c7 25 be a4 ee 58 be d1 80 b9 be
       -0.070900895 -0.161895 -0.21184784 -0.36231092
0002e0 84 18 c4 3b b9 8d 28 be e0 f8 07 be 67 3a c2 be
       0.005984368 -0.16460313 -0.13278532 -0.37935182
0002f0 17 3c 95 be e3 c5 39 be d9 71 5e be 1e 29 8c bd
       -0.29147407 -0.18141894 -0.21723117 -0.0684378
000300 fa eb b7 be 6f 01 cf be a7 06 4d be 74 ea 46 be
       -0.35922223 -0.4043078 -0.20022069 -0.19425374
000310 f6 ca 0e be 5c 32 a2 be 17 e6 ce be 39 48 a7 ba
       -0.13944611 -0.31679046 -0.4040992 -0.0012762613
000320 19 3c 3f be ec 59 9d be 50 92 9b be d8 d4 c1 be
       -0.18675269 -0.30732667 -0.30385065 -0.378577
000330 00 50 2b bd 8f ab 14 bf 73 63 81 be 78 04 cc be
       -0.04182434 -0.5807428 -0.25271186 -0.3984716
000340 0b e9 b2 be e6 84 30 bd 1a c6 b4 be 86 c0 a9 be
       -0.34943423 -0.04309549 -0.3530739 -0.33154696
000350 40 aa fe be 37 d2 6a be 34 59 5b be 47 40 89 be
       -0.49739265 -0.22931753 -0.21420747 -0.26806852
000360 df 57 bb be 23 2f c1 be 75 cb 17 be 3e 80 74 3e
       -0.36590478 -0.37731275 -0.14823706 0.23877046
000370 0d f0 a0 be 03 0e aa be 0e 6c bb be 0d c9 d2 bd
       -0.31433144 -0.33213815 -0.36605877 -0.10292254
000380 78 7d 91 3e 55 23 19 be 25 3e fb 3b 84 96 67 bc
       0.28416038 -0.14954884 0.0076673203 -0.014135007
000390 c7 a1 87 bd 59 2e c4 bb ff 65 4d 3c 95 53 be bd
       -0.066226535 -0.0059869704 0.012536525 -0.09293286
0003a0 cd 8b d3 bc ff c1 28 be f7 70 28 be 15 8d b1 ba
       -0.025823498 -0.16480254 -0.16449343 -0.0013546074
0003b0 71 32 1a bd 64 c3 08 3e 3f 64 c6 be 56 2c 0e bd
       -0.03764576 0.13355786 -0.38748357 -0.03471025
0003c0 37 31 12 bd 29 b7 fe bd c9 7c 7a 3e 90 21 a7 be
       -0.035691466 -0.12437279 0.24461664 -0.32642794
0003d0 8d 3a 1d bd d9 98 61 be 42 0c 3f be a1 c5 55 3d
       -0.038385917 -0.22030963 -0.1865702 0.052190427
0003e0 b0 08 2a 3e 2f a1 4f bd 9f 64 86 be e6 d8 03 be
       0.16604877 -0.050690826 -0.26248643 -0.12875709
0003f0 ae 58 b7 be c6 66 8b be 96 7f 3c 3c 0a 8f b9 be
       -0.35809845 -0.27226847 0.011505028 -0.36241943

conv3.bias f4 [32]
000000 3f d5 1b bc 88 2b 73 3a cd f8 5e 3d ab 46 be 3b
       -0.009511291 0.0009276201 0.054436494 0.005806764
000010 99 8f 44 3c 38 ef 38 bc b1 4e 1a 3c 8d 1c 87 bc
       0.011997127 -0.011287503 0.009418176 -0.016493106
000020 01 8a b4 3b 1a 79 d9 3c 86 52 ef bc 64 77 57 bd
       0.0055096154 0.026547004 -0.029214155 -0.052604094
000030 a2 0c 24 bd f3 56 6a 3b 47 80 58 3b f0 ab 0a bf
       -0.04005111 0.0035757392 0.0033035444 -0.54168606
000040 85 6c 84 bb 07 49 d8 3c b2 0d b3 ba 59 6b 60 3c
       -0.004041257 0.02640201 -0.0013660698 0.013697469
000050 69 8a 39 3c 43 40 40 bb d8 1f 87 bc 84 39 43 3d
       0.011324503 -0.0029335178 -0.016494676 0.047662273
000060 00 85 9d 3b 86 3b c3 ba 24 87 2a 3d 08 bb 0a bb
       0.0048071146 -0.0014895059 0.041632786 -0.0021168608
000070 06 5e 08 bd 8f 09 bc 3a d9 64 b4 bb d6 39 17 bd
       -0.033292793 0.001434611 -0.005505186 -0.03692039

bn3.weight f4 [32]
000000 5c 9b 79 3e 86 2c 2e 3f 1b a1 42 3e c3 88 2e 3e
       0.24375671 0.6803669 0.1900677 0.17044358
000010 61 8c 3c 3e 7f 27 9f 3d 2d 6d 5f 3e ae de 9e 3c
       0.18412925 0.07771205 0.21818991 0.019393291
000020 5c f8 96 3e c9 a3 4c 3e d2 b1 19 3e 44 18 04 3f
       0.29486358 0.19984354 0.1500924 0.51599526
000030 16 e3 6d 3f 7e ca b1 3e 65 62 2d 3e 5e ff b9 3e
       0.9292463 0.34724802 0.16932066 0.36327642
000040 6d f8 d1 3e 8c aa f1 3d 54 3e 20 3f 01 b4 36 3e
       0.41009846 0.11800107 0.62595105 0.17842104
000050 ab b5 04 3e fb bf b7 3d af 90 0d 3f 1c 87 58 3e
       0.12959926 0.08972164 0.55298895 0.2114529
000060 1d 37 11 3e f7 99 80 3e 7e af 05 3e 22 96 4b 3e
       0.1418118 0.25117466 0.13055226 0.1988149
000070 5b 8d 10 3e e9 7c 73 3e a3 0c 0f 3e 87 2e 68 3e
       0.14116423 0.23778118 0.13969664 0.22673999

bn3.bias f4 [32]
000000 db 3c 1f bf 83 b1 70 c0 e2 47 2f bf 1d 63 42 bf
       -0.62202233 -3.7608345 -0.6846906 -0.75932485
000010 e3 19 2b bf 0c ec 17 bf 0a 35 3e bf 12 0f 0a bf
       -0.66836375 -0.59344554 -0.7429968 -0.53929245
000020 ef 7c 1c bf 7f c9 2d bf 06 57 3f bf 0f fb 3e c0
       -0.61128134 -0.67885584 -0.7474216 -2.9840734
000030 3c 89 b2 bf c6 66 dd 3d 2e a1 32 bf de 79 10 c0
       -1.3948131 0.10810618 -0.6977719 -2.2574382
000040 ce d5 04 c0 cc 37 3f bf 7f c3 86 c0 7b c8 02 bf
       -2.0755496 -0.74694514 -4.2113643 -0.5108716
000050 a5 03 42 bf 78 80 16 bf 8d 03 80 c0 86 77 1a bf
       -0.7578681 -0.5878978 -4.0004334 -0.6033863
000060 26 f7 53 bf 7a 67 30 bf c2 33 1c bf 02 b8 3a bf
       -0.82798994 -0.6890789 -0.61016476 -0.72937024
000070 dc b1 86 bf b0 65 3c bf 9e e1 3d bf 62 3c 17 bf
       -1.0523028 -0.7359266 -0.7417239 -0.5907651

bn3.running_mean f4 [32]
000000 dd 36 22 c1 b5 c8 13 c2 eb 65 1e c1 d0 1c a2 c0
       -10.138394 -36.946003 -9.899882 -5.066017
000010 b5 53 ab c0 3e 4f 0f c1 f3 69 8f c1 ee be 30 40
       -5.353968 -8.956846 -17.926733 2.7616534
000020 ef cb 6a c1 b0 b4 30 c1 08 0f 50 c0 84 5d 96 c2
       -14.674788 -11.044113 -3.2509174 -75.18265
000030 97 56 0d c3 57 da 60 c3 1a 30 99 c1 b8 80 01 c4
       -141.33824 -224.85289 -19.148487 -518.0112
000040 35 f7 9c c1 91 d1 cc c0 eb bd 3d c2 eb 27 0a c1
       -19.620707 -6.400582 -47.435467 -8.634746
000050 b6 54 5f c1 c1 6f 6a c0 0c ea b2 c0 8a 18 16 c1
       -13.958181 -3.663071 -5.59107 -9.380991
000060 05 36 90 c0 af 80 57 c1 1a ca 11 c1 64 52 03 c1
       -4.506594 -13.468917 -9.111841 -8.207615
000070 84 7a 14 c1 24 46 83 c1 6b 61 26 c1 9a 49 12 c1
       -9.279911 -16.409248 -10.398784 -9.142969

bn3.running_var f4 [32]
000000 5b da 1f 43 40 c4 2c 45 20 bc d1 42 65 9e 66 42
       159.85295 2764.2656 104.86743 57.654682
000010 e4 46 80 42 a1 44 f3 42 c9 63 eb 43 8f a7 32 43
       64.13846 121.63404 470.77957 178.65453
000020 6e 0f 8b 43 72 a3 54 43 a9 f5 63 41 25 a3 b3 45
       278.12054 212.63846 14.247476 5748.393
000030 25 f7 16 47 ce 84 1c 47 72 e4 0a 44 2a a3 14 49
       38647.145 40068.805 555.56946 608818.6
000040 54 1d e4 44 f6 8a 9e 43 fe 6b c4 45 28 48 c4 42
       1824.9165 317.08563 6285.499 98.14093
000050 90 cc e9 43 9f 53 14 42 db fc 4e 45 b0 95 db 42
       467.59814 37.08166 3311.8035 109.79236
000060 76 21 b3 42 b1 41 c6 43 0d 76 ee 42 10 41 c6 42
       89.56535 396.5132 119.23057 99.127075
000070 bc a4 14 44 34 23 d3 43 38 9a 0d 43 f5 39 f0 42
       594.574 422.27502 141.60242 120.1132

head.weight f4 [3, 256]
000000 99 a4 1e bc 8c 5e 51 3e 40 2c 05 3e e9 8d 38 3c
       -0.009682798 0.20446223 0.13005161 0.011264303
000010 32 74 27 b9 ca 5e 27 3c 88 59 83 bc 68 47 8d bd
       -0.00015969647 0.010215471 -0.016033903 -0.06898385
000020 3f 80 35 bf 7b 2c 8d bd ea bd e0 be d4 64 44 bd
       -0.70898813 -0.068932496 -0.43894893 -0.04794772
000030 53 fd 0b 3f 75 c7 31 3e 25 31 59 3f 3b ea 0f 3d
       0.5468342 0.17361243 0.84840614 0.03513549
000040 3b 9d d2 bd 61 81 a7 3d 19 e6 ef 3d 6e 94 18 be
       -0.102838956 0.08178974 0.117138095 -0.14900371
000050 5e cb ae bd ed 5c 95 3d e3 0f 10 be 3c e9 19 3e
       -0.08534883 0.07293115 -0.1406856 0.15030378
000060 09 ef 3d bd 02 d4 36 bd 4a 94 1f 3c c9 e1 27 3d
       -0.04637054 -0.04463578 0.009739945 0.04098681
000070 f3 af 5f 3d 09 7c 1a bd 04 15 87 3d 44 13 d1 3c
       0.054611158 -0.037715945 0.06595805 0.025521882
000080 86 47 33 3d 25 f1 82 3d c6 2e 37 bd e1 07 48 3d
       0.043769382 0.06393651 -0.04472234 0.04883564
000090 ad d7 63 3c ea 0f d3 bc c7 58 a4 bb c6 df 59 bc
       0.013906402 -0.025764424 -0.005015466 -0.013297981
0000a0 82 f0 d2 bd 4a 75 0a bd 6d c7 26 3c 5d 25 27 bd
       -0.102997795 -0.03380326 0.010179383 -0.040807117
0000b0 2f 87 aa 3d cf bf 60 bd e7 35 34 bc f6 02 e0 3c
       0.083265655 -0.054870423 -0.010999179 0.027345162
0000c0 1e 77 05 3e 47 d7 a5 bd 64 2a 38 3e d4 eb 4d bd
       0.13033721 -0.080977015 0.1798492 -0.05027373
0000d0 41 fe f5 bc 9b e1 83 bd 39 a7 bc 3d 33 65 e8 bb
       -0.030028464 -0.06439515 0.09211583 -0.007092142
0000e0 a5 5f 63 bd 9c 27 4f bc ad 36 82 3b 97 f7 c3 bc
       -0.055511136 -0.012643721 0.003973803 -0.023921771
0000f0 7e 72 35 bc d3 55 be bd 1d 74 e8 3c 3a 93 25 bd
       -0.01107466 -0.092937134 0.02837568 -0.04042361
000100 a8 7e 20 be d7 e8 37 3d 4c bc 45 3e 4b a8 77 3d
       -0.15673316 0.044899788 0.19310111 0.06046323
000110 b6 d6 78 3e e2 18 2f 3e 30 e2 87 bd 50 57 26 bd
       0.24300656 0.17099336 -0.06634939 -0.04061061
000120 35 fb 13 3e fa 9f 93 3d 59 56 03 3e 20 9c 3f be
       0.14451297 0.072082475 0.12825908 -0.187119
000130 7d 21 09 3e 4b 91 71 be d5 e6 58 3d cd ea 7e be
       0.13391681 -0.23590581 0.052954514 -0.24894257
000140 96 cb 38 3c fe 01 74 3b 24 37 38 bd b1 75 62 bd
       0.011279007 0.0037232633 -0.04497446 -0.05528802
000150 43 cd 10 bd 68 98 73 3a 9e e5 4e 3d bc c0 15 bd
       -0.035352003 0.00092924247 0.05051195 -0.03656076
000160 ad fd fb be 59 47 50 be e0 ca 41 3e 88 d8 42 be
       -0.49216977 -0.20339717 0.18925047 -0.19027913
000170 df 35 78 3d bf 50 17 3f f8 eb fc be 7d 1b f3 be
       0.06059825 0.59107584 -0.4939878 -0.4748191
000180 ab b4 a3 3f 6e e3 ce be c9 17 11 3e 77 d4 51 bf
       1.278951 -0.4040789 0.1416923 -0.8196482
000190 16 54 9e 3d f3 d4 f1 bc 44 7f 33 3e ff 89 62 3d
       0.07730882 -0.029520487 0.17529017 0.055307385
0001a0 3e 23 c8 be cf c4 d0 be 44 1e f5 3e 5c fa 05 40
       -0.39089388 -0.40775153 0.47874653 2.0934057
0001b0 60 5d d7 bd 18 a2 63 40 8b c1 e5 bf 1b f6 37 c0
       -0.10515857 3.5567684 -1.794969 -2.874396
0001c0 cd b4 22 3d 0d 51 2d 3b 06 70 59 bd 98 ce ee 3a
       0.039723206 0.0026446015 -0.05308535 0.0018219529
0001d0 ff a6 88 bd 27 e2 4f be f5 5d f0 3c 95 c8 fd bd
       -0.06672477 -0.20301114 0.029341677 -0.123917736
0001e0 a3 2f 77 c0 28 43 96 40 46 df a8 bf b4 41 9f 3e
       -3.8622825 4.695698 -1.3193138 0.31104815
0001f0 9e 64 4e bf ca 8f 8b bf 56 e3 62 c0 83 d0 a2 40
       -0.8062228 -1.0903256 -3.5451255 5.087953
000200 5d 13 00 bf 05 92 a3 3e 7c 58 8f 3f 55 04 56 3f
       -0.50029546 0.31947342 1.1198878 0.8360036
000210 8e ab c0 be b0 6a a5 be db 69 a4 bd 67 70 21 bf
       -0.37630886 -0.3230796 -0.08028003 -0.6306214
000220 36 9c 59 be c8 12 08 bc 9d 39 0a bd 7e 5a 07 be
       -0.21250996 -0.008305259 -0.03374635 -0.13218114
000230 13 ee 2f 3d ee 7e 55 3c bc f2 aa bd c7 d2 bd bc
       0.042951655 0.013030751 -0.08347079 -0.023171796
000240 c3 09 93 3d da 25 f4 bc 77 20 5e bf 5d 49 c1 3e
       0.07179596 -0.029803205 -0.8676829 0.37751284
000250 e4 a9 06 be 9d 8e 61 3b 78 a1 b9 3c 35 24 4c bd
       -0.13150746 0.003441728 0.022660002 -0.049839217
000260 4a 5e f7 3d 6d b0 0e 3e 90 1a b7 bc 1d fd e5 bd
       0.12078531 0.13934489 -0.022351533 -0.11229918
000270 98 cd 02 3e 32 93 12 3d 16 7b b5 bd 8a fc 11 3e
       0.1277374 0.035784908 -0.088613674 0.14256492
000280 a2 c4 b3 bd b3 73 ae 3c b1 b7 c1 bd 66 9c 32 bc
       -0.08777739 0.021295404 -0.094588645 -0.010901546
000290 72 67 83 bd f2 85 23 3e 53 d8 e3 bd 3f 30 24 bd
       -0.06416215 0.15969065 -0.11125245 -0.040085074
0002a0 42 aa 0c 3d d1 7e 21 bd f9 54 33 bc 48 c3 ec bb
       0.034342058 -0.039427582 -0.010945552 -0.007225428
0002b0 1b d8 e6 3b aa cc 01 bc 79 6a 56 bd bb 36 8f bd
       0.0070448047 -0.007922331 -0.052347634 -0.06992861
0002c0 68 3a 7c be 3d d1 2b 3e ca df 0f be bf 16 7d be
       -0.24631655 0.16779037 -0.14050213 -0.24715708
0002d0 02 b1 a6 3e 9d a6 18 bf db c9 ec 3d eb 7d ef 3e
       0.3255692 -0.5962923 0.115619384 0.46775755
0002e0 07 30 34 bd 6f de 35 bd c1 66 41 bc 7c f0 d3 3d
       -0.043991115 -0.044401582 -0.011804284 0.10348603
0002f0 b2 5e 63 bc ae d2 19 bd 57 99 a2 bc 15 0a d8 bb
       -0.013877558 -0.037554435 -0.019848509 -0.0065929987
000300 33 c0 b5 bd 0a 07 81 bc f5 43 d9 3c 50 f3 61 be
       -0.0887455 -0.015750427 0.026521662 -0.22065473
000310 28 02 b0 3c 5a d9 87 be 62 83 e6 bc 45 4b 44 be
       0.021485403 -0.26533014 -0.02813882 -0.19169338
000320 f8 72 94 be 98 62 4c bc 6d 9a a2 bd 67 6c 38 be
       -0.28993964 -0.012474678 -0.07939611 -0.18010102
000330 e7 ff d8 3d cb 80 3b bd f4 60 d9 3d f6 74 e7 bd
       0.105956845 -0.045777123 0.106141955 -0.113016054
000340 a7 b0 9d bd 99 7f b1 bd a0 58 1f bd e2 ac 90 bd
       -0.076997094 -0.086669154 -0.03890288 -0.07064225
000350 3a d0 34 bd 5b fe e1 3d f1 12 d8 3c 39 98 bc 3d
       -0.044143893 0.110348426 0.02637622 0.09208722
000360 cc b6 0f 3e da bc 08 be d3 11 a2 3c 83 67 d6 3d
       0.14034575 -0.13353291 0.01978389 0.10468962
000370 ae 50 08 3e 73 0e 3e bc c9 bf c5 3d 1b e3 dc bd
       0.13312027 -0.011600125 0.09655721 -0.107855044
000380 f4 88 01 3e f5 9f 9a bd ae 28 ec bb 7d 22 9c bd
       0.126499 -0.07550041 -0.007206998 -0.076237656
000390 5b f0 9f 3d ad 89 11 bc 34 2a 84 bc e0 54 a2 3d
       0.07809516 -0.008882922 -0.016133405 0.07926345
0003a0 e8 d0 b2 3d 33 b9 43 3e f1 a3 56 3e c9 94 30 bd
       0.08731252 0.19113617 0.20960976 -0.043110643
0003b0 85 ea dd 3d a8 44 7d bd 6d 50 06 be 12 7f 8c bd
       0.10835747 -0.061833054 -0.13116618 -0.06860174
0003c0 20 db 10 3e db 50 ea 3c 6b ca c6 3d ec b1 88 3d
       0.1414609 0.028603008 0.09706577 0.06674561
0003d0 ba ea d5 3d 56 9a 2f 3e d1 81 28 3e 1e d6 74 3d
       0.10445161 0.17148718 0.16455771 0.05977451
0003e0 56 21 85 bd 56 3d 78 bc 1f 38 ae 3b 08 07 2b 3c
       -0.06500499 -0.015151342 0.0053167487 0.010438688
0003f0 3f de dc bc 73 71 af bd 72 57 a0 3b 8e 99 bd 3d
       -0.026961444 -0.085665606 0.004893237 0.09257804

head.bias f4 [3]
000000 c5 ae 9f 3f 44 cd f6 3f 99 f2 02 40
       1.247521 1.9281392 2.046057

square_avg f4 [3]
000000 ea 2f 2e 37 fe 0c 53 39 94 84 6a 39
       1.0382364e-05 0.00020127368 0.00022365368

square_avg f4 [32]
000000 32 00 00 00 32 00 00 00 32 00 00 00 32 00 00 00
       7e-44 7e-44 7e-44 7e-44
000010 32 00 00 00 32 00 00 00 32 00 00 00 32 00 00 00
       7e-44 7e-44 7e-44 7e-44
000020 32 00 00 00 32 00 00 00 32 00 00 00 32 00 00 00
       7e-44 7e-44 7e-44 7e-44
000030 fa 22 eb 38 78 32 3c 3a 32 00 00 00 32 00 00 00
       0.00011212188 0.0007179151 7e-44 7e-44
000040 32 00 00 00 32 00 00 00 32 00 00 00 32 00 00 00
       7e-44 7e-44 7e-44 7e-44
000050 32 00 00 00 32 00 00 00 32 00 00 00 32 00 00 00
       7e-44 7e-44 7e-44 7e-44
000060 32 00 00 00 32 00 00 00 32 00 00 00 32 00 00 00
       7e-44 7e-44 7e-44 7e-44
000070 32 00 00 00 32 00 00 00 32 00 00 00 32 00 00 00
       7e-44 7e-44 7e-44 7e-44

square_avg f4 [16, 1, 5, 5]
000000 a7 df 46 30 81 9b 65 30 d1 71 7e 30 fb 80 61 30
       7.234981e-10 8.35307e-10 9.2566405e-10 8.2037815e-10
000010 2b 1d a7 30 e8 80 43 30 1a 8e 1e 30 06 f1 4e 30
       1.2159139e-09 7.1123774e-10 5.7682004e-10 7.528488e-10
000020 a5 a6 aa 30 b6 1a 61 30 b5 8e 32 30 f8 cf 1e 30
       1.2416491e-09 8.189248e-10 6.495882e-10 5.7775607e-10
000030 fd 79 93 30 35 1b 3c 30 cd 99 a0 30 0f 65 44 30
       1.0730329e-09 6.8432665e-10 1.1685245e-09 7.1448e-10
000040 43 02 45 30 d7 c4 87 30 8e b4 83 30 e0 04 60 30
       7.1671397e-10 9.878488e-10 9.582821e-10 8.1497653e-10
000050 6e d9 3b 30 a0 13 2f 30 bb 08 57 30 1e 3a 5e 30
       6.833919e-10 6.369252e-10 7.822895e-10 8.084572e-10
000060 ea b2 9c 30 13 3b 24 30 c8 1e 5e 30 29 21 82 30
       1.1401344e-09 5.97468e-10 8.080687e-10 9.46817e-10
000070 87 35 c0 30 1a 1b bf 30 40 ff 59 30 c9 97 58 30
       1.3985052e-09 1.3904782e-09 7.930687e-10 7.879604e-10
000080 68 a2 62 30 19 9b a5 30 eb 81 d6 30 81 cc 69 30
       8.2449114e-10 1.2049411e-09 1.5607474e-09 8.5055524e-10
000090 d6 b2 39 30 83 8a 5a 30 9f 25 c3 30 e3 79 c5 30
       6.755675e-10 7.9504775e-10 1.419881e-09 1.4368279e-09
0000a0 f2 d6 3b 30 b7 8f 6d 30 bf cd 45 30 20 9f 09 31
       6.833566e-10 8.642433e-10 7.1960565e-10 2.0026576e-09
0000b0 ea c1 d7 30 e9 b1 5c 30 8e c8 62 30 44 03 85 30
       1.5698423e-09 8.028836e-10 8.2503326e-10 9.677952e-10
0000c0 c7 57 c2 30 c0 74 09 31 f5 a2 32 30 1c 47 84 30
       1.4140306e-09 2.0002489e-09 6.49876e-10 9.624475e-10
0000d0 fa 66 c6 30 90 af c6 30 9b a5 00 31 57 13 28 30
       1.4435664e-09 1.4456294e-09 1.8720587e-09 6.114553e-10
0000e0 75 27 8f 30 29 ca ac 30 79 12 e3 30 63 cc cf 30
       1.0415834e-09 1.2572104e-09 1.6521674e-09 1.5119322e-09
0000f0 5f 5f a2 30 8e 2e 7b 30 91 c9 ca 30 00 70 f7 30
       1.1814157e-09 9.1379426e-10 1.4754723e-09 1.8003448e-09
000100 18 6c 00 31 9a b9 5a 30 7f dc 93 30 9b 65 f0 30
       1.8687896e-09 7.9571694e-10 1.0758326e-09 1.7491176e-09
000110 71 0b c2 30 0e 4a 3f 31 40 ce 39 30 12 fd 7e 30
       1.411861e-09 2.7836253e-09 6.7595707e-10 9.2764296e-10
000120 6f 77 8e 30 aa cd b8 30 fc fc 1e 31 c1 26 95 30
       1.0365805e-09 1.3446215e-09 2.313583e-09 1.0852191e-09
000130 89 9d 4a 30 19 5c 95 30 c9 e8 c0 30 f2 3a ef 30
       7.3711043e-10 1.0867353e-09 1.4036e-09 1.7406292e-09
000140 f9 da 99 30 e6 9b 43 30 fb 57 4b 30 47 9d d2 30
       1.1194451e-09 7.116213e-10 7.3976e-10 1.5324212e-09
000150 25 b5 d9 30 42 86 6e 30 d0 73 6d 30 c5 fe bb 30
       1.5840312e-09 8.677469e-10 8.6384677e-10 1.3678451e-09
000160 f9 1a 90 30 36 91 d8 30 25 80 74 30 68 6b 7d 30
       1.0485045e-09 1.575734e-09 8.894879e-10 9.21935e-10
000170 6b 7e 71 30 9d 8b 9f 30 b9 6c ac 30 60 f4 5f 30
       8.785494e-10 1.1608453e-09 1.2545548e-09 8.1474205e-10
000180 35 38 54 30 90 00 9c 30 a2 8f 9f 30 2c 53 9d 30
       7.7205026e-10 1.1350654e-09 1.1609596e-09 1.1446892e-09
000190 44 da 3e 30 1a 45 26 30 95 ac 87 30 e9 15 8b 30
       6.943177e-10 6.048865e-10 9.871594e-10 1.0119808e-09
0001a0 34 64 dd 30 95 ab 47 30 f6 68 22 30 a0 94 90 30
       1.6108346e-09 7.263961e-10 5.9084415e-10 1.0519621e-09
0001b0 0e 10 8d 30 19 d1 ce 30 d8 93 3a 30 15 0b 46 30
       1.0263663e-09 1.5047902e-09 6.7876504e-10 7.204773e-10
0001c0 83 0c 8b 30 22 82 89 30 e5 f3 e6 30 45 cb 2b 30
       1.0117137e-09 1.0005048e-09 1.6804022e-09 6.24983e-10
0001d0 0a 57 5b 30 30 e3 81 30 70 7e 74 30 07 a1 a0 30
       7.9795426e-10 9.450556e-10 8.894636e-10 1.1687299e-09
0001e0 60 a5 3a 30 be 07 67 30 05 b7 85 30 00 be 8b 30
       6.790142e-10 8.404831e-10 9.729041e-10 1.0167582e-09
0001f0 05 52 b6 30 a7 68 89 30 61 c4 88 30 98 a7 ee 30
       1.3265554e-09 9.997806e-10 9.951117e-10 1.7364412e-09
000200 d6 03 09 31 2c e3 9c 30 99 6f 7a 30 d7 32 76 30
       1.9938304e-09 1.141506e-09 9.110806e-10 8.9566526e-10
000210 40 5b f1 30 43 8c 10 31 d6 ec ba 30 73 db 8d 30
       1.7560993e-09 2.1034487e-09 1.3600594e-09 1.0321471e-09
000220 48 ff a0 30 dd 86 b9 30 99 a5 d8 30 5c df d6 30
       1.1714087e-09 1.3498852e-09 1.5763134e-09 1.5634032e-09
000230 30 ae 4b 30 8c 66 88 30 3f da 91 30 e9 5b eb 30
       7.4098505e-10 9.924448e-10 1.0612168e-09 1.7124623e-09
000240 f3 32 de 30 53 fc 77 30 aa bf a6 30 cd e3 03 31
       1.6167107e-09 9.021665e-10 1.2132564e-09 1.9192499e-09
000250 81 42 b0 30 a3 3a 2f 31 ee c2 18 30 b2 cc 46 30
       1.2824587e-09 2.5499183e-09 5.557429e-10 7.232287e-10
000260 aa db 42 30 16 40 77 30 91 0d 46 30 d8 db 17 30
       7.088895e-10 8.994915e-10 7.205126e-10 5.5245897e-10
000270 fa 1c 68 30 35 5e 75 30 ad b0 ac 30 c0 e1 42 30
       8.4442286e-10 8.9264357e-10 1.2564861e-09 7.08976e-10
000280 ef e2 14 30 cd c3 34 30 b7 d4 37 30 06 ea 68 30
       5.416458e-10 6.576187e-10 6.68773e-10 8.4733676e-10
000290 a7 c6 53 30 52 4d 36 30 ba fe 71 30 3b 22 5a 30
       7.7043655e-10 6.6321093e-10 8.803728e-10 7.935658e-10
0002a0 e1 a6 5a 30 2f 31 21 30 98 8f 0b 30 2f 8a 4c 30
       7.9545087e-10 5.8641353e-10 5.0771964e-10 7.441114e-10
0002b0 84 6a 5a 30 a0 f5 4a 30 58 79 8b 30 c1 99 56 31
       7.9459306e-10 7.3836226e-10 1.0148069e-09 3.1228498e-09
0002c0 d2 b9 01 31 23 bf b3 30 bd 4b fe 30 79 54 31 31
       1.8877597e-09 1.3078288e-09 1.8502458e-09 2.5804907e-09
0002d0 4a 23 4d 31 72 e3 b2 30 45 2c db 30 f4 f8 bf 30
       2.9851486e-09 1.3015848e-09 1.5946929e-09 1.3967836e-09
0002e0 81 30 23 31 f1 7b 51 31 15 5b e0 30 2f 73 a8 30
       2.3747193e-09 3.0483955e-09 1.6324032e-09 1.2256346e-09
0002f0 d0 ab e9 30 ee 78 32 31 12 28 4b 31 db c8 cc 30
       1.7001813e-09 2.597115e-09 2.9563165e-09 1.490004e-09
000300 92 85 be 30 0d cd a5 30 33 74 17 31 c1 2e 52 31
       1.3862282e-09 1.2063609e-09 2.2039444e-09 3.0585598e-09
000310 51 c7 dd 30 90 d7 e7 30 bf a6 00 31 78 ca 24 31
       1.6136515e-09 1.6868729e-09 1.8721236e-09 2.3980231e-09
000320 cc 6c 8d 30 d5 5f a2 30 fa 32 ef 30 ef d2 b9 30
       1.0290022e-09 1.1814288e-09 1.7404027e-09 1.3520473e-09
000330 1d 78 07 31 be 10 6a 30 35 f7 fd 30 4b f0 e5 30
       1.9713362e-09 8.5152496e-10 1.8478433e-09 1.6730238e-09
000340 49 64 2e 31 ef 85 1b 31 45 12 b9 30 f7 44 ae 30
       2.5377338e-09 2.26316e-09 1.3465714e-09 1.2679767e-09
000350 27 9f c3 30 2d 29 d6 30 c2 50 03 31 76 cc 91 30
       1.4233351e-09 1.5582252e-09 1.9108914e-09 1.060825e-09
000360 5f e0 9d 30 37 02 b2 30 91 40 07 31 75 2a 17 31
       1.1487024e-09 1.2951834e-09 1.9681787e-09 2.1997526e-09
000370 3c 2f cb 30 68 b5 05 31 ab 01 93 30 7b 66 e1 30
       1.4783619e-09 1.9457165e-09 1.0696132e-09 1.6400031e-09
000380 67 a8 fc 30 5e 32 69 30 dc 60 5c 30 24 83 8d 30
       1.8383276e-09 8.483648e-10 8.017318e-10 1.0296373e-09
000390 88 f5 89 30 90 11 99 30 00 48 2d 30 fc f2 55 30
       1.0037846e-09 1.1137207e-09 6.303935e-10 7.783425e-10
0003a0 5c 42 8d 30 18 ba 98 30 ef f5 9f 30 ad 7d 64 30
       1.0277961e-09 1.1112347e-09 1.1638671e-09 8.3124513e-10
0003b0 87 3f 2d 30 d1 2f 86 30 25 28 c1 30 bd 5f b4 30
       6.302731e-10 9.763373e-10 1.4054008e-09 1.3123934e-09
0003c0 60 f5 4b 30 76 dc 85 30 48 e2 84 30 e1 89 b5 30
       7.419967e-10 9.739682e-10 9.668577e-10 1.3208671e-09
0003d0 ea b7 8d 30 9b ec 89 30 13 bd 8a 30 0a 6b 9a 30
       1.0311372e-09 1.0035309e-09 1.009456e-09 1.1235397e-09
0003e0 0d fb b3 30 0d 5b 82 30 af 72 77 30 c9 cf 70 30
       1.3095317e-09 9.484623e-10 9.002105e-10 8.760677e-10
0003f0 9e fd 61 30 b5 df c3 30 0d 61 a5 30 89 fe 2f 30
       8.2214935e-10 1.4251699e-09 1.2032914e-09 6.4026345e-10

square_avg f4 [32]
000000 3d 9d ac 32 cd de 3f 35 cc 5a 83 34 b8 dd 0a 35
       2.0094939e-08 7.147726e-07 2.4466715e-07 5.173165e-07
000010 b1 66 cb 33 82 0b 59 33 43 03 51 35 cb 32 a4 35
       9.4716036e-08 5.0534716e-08 7.7863314e-07 1.2233735e-06
000020 28 af 39 35 c9 96 9e 33 92 f5 c9 36 ec 55 25 33
       6.9172756e-07 7.384876e-08 6.018855e-06 3.84952e-08
000030 44 c1 d8 33 71 55 53 34 32 00 00 00 22 7d 84 35
       1.00934386e-07 1.968199e-07 7e-44 9.871185e-07
000040 51 5c 48 35 88 9d 92 34 b6 d6 b5 33 f2 e7 e8 31
       7.4640144e-07 2.7309238e-07 8.467525e-08 6.778458e-09
000050 32 00 00 00 fb 3f 9e 36 32 00 00 00 23 f5 10 33
       7e-44 4.7162152e-06 7e-44 3.3750563e-08
000060 0d 5e 33 36 0c 58 5d 35 be 5e 33 34 db 48 3a 33
       2.6727823e-06 8.245704e-07 1.6705141e-07 4.337276e-08
000070 4a 0e b4 32 3b a5 8d 34 32 00 00 00 c5 25 bd 35
       2.0961256e-08 2.6383518e-07 7e-44 1.409259e-06

square_avg f4 [32]
000000 32 00 00 00 32 00 00 00 32 00 00 00 32 00 00 00
       7e-44 7e-44 7e-44 7e-44
000010 32 00 00 00 32 00 00 00 32 00 00 00 32 00 00 00
       7e-44 7e-44 7e-44 7e-44
000020 32 00 00 00 32 00 00 00 32 00 00 00 32 00 00 00
       7e-44 7e-44 7e-44 7e-44
000030 0c 2c 10 1d df 1f 6c 1d 32 00 00 00 32 00 00 00
       1.9081013e-21 3.1250817e-21 7e-44 7e-44
000040 32 00 00 00 32 00 00 00 32 00 00 00 32 00 00 00
       7e-44 7e-44 7e-44 7e-44
000050 32 00 00 00 32 00 00 00 32 00 00 00 32 00 00 00
       7e-44 7e-44 7e-44 7e-44
000060 32 00 00 00 32 00 00 00 32 00 00 00 32 00 00 00
       7e-44 7e-44 7e-44 7e-44
000070 32 00 00 00 32 00 00 00 32 00 00 00 32 00 00 00
       7e-44 7e-44 7e-44 7e-44

square_avg f4 [32]
000000 b7 74 da 12 8a 15 e0 15 c6 ff cd 11 b8 8c 10 16
       1.3786507e-27 9.050686e-26 3.250093e-28 1.167663e-25
000010 59 d0 45 14 f0 a8 8a 13 35 70 93 1a 1d 28 99 1a
       9.987048e-27 3.5002683e-27 6.0979055e-23 6.3344123e-23
000020 96 1e c6 1a f7 48 33 13 44 6d f4 18 9f 09 15 14
       8.1940295e-23 2.262895e-27 6.318285e-24 7.524475e-27
000030 95 f1 ab 14 da ba 8b 14 32 00 00 00 a0 f7 2a 15
       1.7361875e-26 1.4109113e-26 7e-44 3.4526568e-26
000040 4c b5 17 1b 9a 39 93 15 96 94 f9 13 db 52 7e 11
       1.2549007e-22 5.9463706e-26 6.3002954e-27 2.0062599e-28
000050 32 00 00 00 34 63 8c 18 32 00 00 00 58 83 9a 13
       7e-44 3.628932e-24 7e-44 3.900458e-27
000060 3e fa 09 1a b4 65 6f 18 3e 2d d8 14 c9 4e 1b 14
       2.853308e-23 3.0941373e-24 2.1828271e-26 7.841038e-27
000070 3f 0d 66 12 a1 94 20 15 32 00 00 00 43 27 f7 19
       7.259153e-28 3.242899e-26 7e-44 2.5555059e-23

square_avg f4 [16]
000000 15 17 b1 33 3d a2 87 32 c9 e1 42 33 2c f6 8b 32
       8.2464034e-08 1.5789846e-08 4.5374495e-08 1.6293676e-08
000010 ed 4b 0a 33 81 ef 7f 33 88 93 c9 33 c1 ea 5c 33
       3.2199683e-08 5.958964e-08 9.386628e-08 5.143625e-08
000020 05 bd 1d 33 fc cc 33 33 31 d1 9c 32 46 c1 39 33
       3.6726323e-08 4.1863117e-08 1.825592e-08 4.324945e-08
000030 50 ac 81 33 93 b7 50 33 ac f0 14 33 6f 81 2e 32
       6.038374e-08 4.8595734e-08 3.4677825e-08 1.0157563e-08

square_avg f4 [32]
000000 bd c2 48 31 ad e7 99 34 c9 91 92 32 0c 6f 50 34
       2.9214526e-09 2.8667037e-07 1.7062932e-08 1.9411908e-07
000010 4f 4e 2e 32 37 26 f6 31 da 44 bc 34 41 ce 29 35
       1.0145938e-08 7.163887e-09 3.5067825e-07 6.3257545e-07
000020 e8 93 ad 34 3c 15 04 32 10 5a 13 36 7a 99 e4 31
       3.2331377e-07 7.688239e-09 2.195713e-06 6.6531216e-09
000030 0c 26 ab 32 37 f5 9f 32 32 00 00 00 73 9e 2c 34
       1.9924322e-08 1.8621547e-08 7e-44 1.6076392e-07
000040 df c0 b5 34 f9 5c 94 33 00 14 57 32 d8 eb e3 2f
       3.385421e-07 6.908699e-08 1.2519195e-08 4.1458637e-10
000050 32 00 00 00 fe 1b f5 35 32 00 00 00 93 53 cd 31
       7e-44 1.8262069e-06 7e-44 5.9757865e-09
000060 fc 64 a6 35 da 50 d7 34 54 bd 08 33 91 06 7d 31
       1.2397354e-06 4.0105698e-07 3.183716e-08 3.6820078e-09
000070 a0 ff 37 31 cb fe a1 33 32 00 00 00 85 3a 35 35
       2.677531e-09 7.543493e-08 7e-44 6.751291e-07
